Reacher-Continuous-Control/checkpoints/checkpoint_critic.pth (torch_old, 549449 bytes, 9 tensors)

fcs1.weight f4 [400, 33]
0.4077821 0.7476618 -0.14144571 0.7494936 0.5179512 -0.5997325 -0.46636325 0.14843664
0.5957449 -0.048271894 0.14940691 -0.052298345 0.01884888 -0.17590326 -0.15196076 0.14346154
-0.1703261 -0.08404273 -0.8537265 -0.05100762 -0.013226803 -0.027079618 -0.08049611 0.029959068
0.033119936 -0.24775915 -0.015249544 0.023795692 -0.24204084 0.046064395 -0.016896961 -0.0063220337
1.4255301 -0.29565415 0.95222044 0.6292376 0.6306143 0.24634406 0.8175758 0.33425847
-0.21173352 0.33237606 -0.56604 -0.0044385046 -0.10516185 0.016057935 0.091353536 -0.28247586
-0.34376314 -0.7783175 -0.14637975 -0.020072341 0.08407987 0.030823234 0.15805046 0.05325843
-0.029442376 -0.018917909 0.00037224728 -0.26539338 -0.016443882 0.1776509 -0.006132245 -0.03638054
0.013311539 0.086975545 -0.098300405 0.020189801 -0.21571833 -0.18526691 0.7977431 -0.73360455
-0.42966256 0.05839054 0.59492207 0.7407974 -0.20310256 0.065166034 -0.19752578 -0.44046885
0.24845494 0.120321296 0.5723991 -0.96609795 0.17782724 -0.03258163 -0.23513496 -0.22946618
0.302046 -0.11978586 -0.11430023 -0.20278342 -0.09619304 0.033162855 0.33675706 -0.027979612
0.013234729 0.034088973 0.56530994 0.5873473 -0.35220033 0.65694565 -0.18128131 0.31571668
-0.19736964 0.39058545 -0.37725005 -0.23307435 0.011012356 0.107536905 0.05598593 -0.019399343
-0.3174227 0.05814568 -0.070783116 0.76367855 -1.1976818 -0.31240302 -0.3528785 0.2823746
0.10595178 0.027790546 -0.2222456 -0.11551656 0.07986452 -0.25524983 -0.043258335 -0.16360703
-0.0362385 0.04018951 0.046677362 -0.02058213 -0.0859871 -0.59819186 0.09627123 0.090274535
0.5440423 0.5570798 0.57910496 -0.20254278 0.048439384 -0.17732415 0.11822361 -0.082573794
0.08388338 0.25671026 0.14911865 0.089997366 0.83208555 -0.7086985 0.16062471 -0.03634928
0.036175966 -0.07205861 -0.112755224 0.059254073 0.083266795 0.036116116 -0.28641036 0.040774815
-0.07351426 0.0068832934 -0.016846713 -0.047821563 -1.9777656 -0.012034508 0.062057182 -0.3172239
-0.4492072 -0.70094764 -0.9781259 0.22507155 -0.2801368 -0.32360035 0.099674836 0.06786602
-0.026461344 -0.12561503 0.04059142 -0.14568275 0.14444937 0.6036897 0.80371314 0.24800418
-0.106027864 0.045525275 -0.07816652 -0.030524049 -0.034699805 -0.043903198 0.035845853 -0.11124188
0.029171277 0.36083388 -0.03763588 -0.028447514 0.000749439 -1.6868299 0.04279392 0.0115758395
-0.08284532 0.013619197 -0.021926107 0.026405841 0.010480103 0.017075721 -0.030808859 0.0016833039
-0.057382144 -0.022344124 0.024540432 -0.022398869 -0.06981792 -0.056808166 -0.022903109 0.0152474325
-0.038548496 0.03131379 -0.032093614 0.0036224576 0.02991657 0.013724111 -0.028104903 0.06883026
-0.0635726 0.043100346 0.026004076 -0.0014252737 0.041483913 0.009002365 -0.021855995 0.30901253
0.31868747 0.17945431 -0.7539156 0.28899422 -0.81160283 0.7875745 0.18774924 0.2683866
-0.04289535 0.21625184 0.15894394 -0.022413692 0.03290466 -0.2764325 -0.03219516 -0.3890788
0.6847329 1.8273078 -0.74077046 -0.05397844 0.23811607 -0.023453314 0.15748307 -0.059607726
00000000: d1c8 d03e c466 3f3f 25d7 10be d0de 3f3f
00000010: 7398 043f 1288 19bf 2ac7 eebe c6ff 173e
00000020: bd82 183f c0b8 45bd 20fe 183e ca36 56bd
00000030: f768 9a3c fc1f 34be 9a9b 1bbe 95e7 123e
00000040: f769 2ebe 981e acbd d28d 5abf 5eed 50bd
00000050: 3cb5 58bc 13d6 ddbc 25db a4bd b86c f53c
00000060: c5a8 073d 93b4 7dbe 39d9 79bc 2fef c23c
00000070: 8ed9 77be 05ae 3c3d 7f6b 8abc 1029 cfbb
00000080: c577 b63f fb5f 97be b8c4 733f b715 213f
00000090: f06f 213f 9e41 7c3e a64c 513f ed23 ab3e
000000a0: acd0 58be 322d aa3e ffe7 10bf e070 91bb
000000b0: 195f d7bd ee8b 833c 9017 bb3d ada0 90be
000000c0: b901 b0be d13f 47bf 93e4 15be c06e a4bc
000000d0: 1132 ac3d 0281 fc3c fbd7 213e 8325 5a3d
000000e0: 2331 f1bc bbf9 9abc 2f2a c339 a4e1 87be
000000f0: 52b5 86bc 1eea 353e 00f1 c8bb c303 15bd
00000100: a418 5a3c 3c20 b23d b951 c9bd 1565 a53c
00000110: 44e5 5cbe 9cb6 3dbe e438 4c3f 82cd 3bbf
00000120: bbfc dbbe eb2a 6f3d d04c 183f e6a4 3d3f
00000130: 1efa 4fbe c575 853d 3344 4abe 2285 e1be
00000140: f96a 7e3e 036b f63d bf88 123f 3252 77bf
00000150: 5818 363e 5174 05bd 38c7 70be 2ff9 6abe
00000160: c6a5 9a3e 4a52 f5bd 3d16 eabd 75a6 4fbe
00000170: db00 c5bd c6d5 073d 6c6b ac3e 8035 e5bc
00000180: 7ad6 583c e1a0 0b3d 27b8 103f 655c 163f
00000190: 9a53 b4be 972d 283f cfa1 39be 9ea5 a13e
000001a0: 441b 4abe d1fa c73e eb26 c1be 0bab 6ebe
000001b0: 2b6d 343c 4f3c dc3d 8151 653d 5feb 9ebc
000001c0: 3a85 a2be 2a2a 6e3d bdf6 90bd 7080 433f
000001d0: a34d 99bf 4af3 9fbe 7eac b4be 6793 903e
000001e0: 3ffd d83d 00a9 e33c 5a94 63be f293 ecbd
000001f0: 0290 a33d 1bb0 82be a72f 31bd 9a88 27be
00000200: d26e 14bd c19d 243d c330 3f3d db9b a8bc
00000210: 011a b0bd 1a23 19bf da29 c53d dbe1 b83d
00000220: 5b46 0b3f c89c 0e3f 3940 143f 6067 4fbe
00000230: 6068 463d 7694 35be 381f f23d 731c a9bd
00000240: 0dcb ab3d 876f 833e 8fb2 183e 8a50 b83d
00000250: 8f03 553f 446d 35bf ce7a 243e fce2 14bd
00000260: 402d 143d 7793 93bd 36ec e6bd 66b4 723d
00000270: c887 aa3d 7eee 133d 61a4 92be 7e03 273d
00000280: a58e 96bd 408d e13b 1e02 8abc 8be0 43bd
00000290: 6c27 fdbf 632c 45bc ac2f 7e3d 2c6b a2be
000002a0: 7cfe e5be 4e71 33bf 7566 7abf 2879 663e
000002b0: 176e 8fbe f2ae a5be 5222 cc3d 57fd 8a3d
000002c0: 76c5 d8bc 3aa1 00be 3043 263d dc2d 15be
000002d0: 89ea 133e 688b 1a3f 25c0 4d3f cff4 7d3e
000002e0: 2325 d9bd b678 3a3d c515 a0bd 920d fabc
000002f0: 6221 0ebd d7d3 33bd 1ad3 123d c8d2 e3bd
00000300: 9af8 ee3c 38bf b83e 1528 1abd c30a e9bc
00000310: 0076 443a 0bea d7bf ad48 2f3d 97a8 3d3c
00000320: cfaa a9bd 0d23 5f3c 619e b3bc 1051 d83c
00000330: bdb4 2b3c 62e2 8b3c dc62 fcbc 4ea2 dc3a
00000340: 8a09 6bbd 060b b7bc 0409 c93c d57d b7bc
00000350: b3fc 8ebd aeaf 68bd 4d9f bbbc 5ed0 793c
00000360: 07e5 1dbd e342 003d 9874 03bd c166 6d3b
00000370: 9813 f53c 18db 603c 413c e6bc e1f6 8c3d
00000380: 5a32 82bd fd89 303d 8006 d53c 40d0 baba
00000390: 09eb 293d a87e 133c 580b b3bc e436 9e3e
000003a0: 012b a33e dfc2 373e 9d00 41bf 0df7 933e
000003b0: 34c5 4fbf 7c9e 493f 5641 403e f869 893e
000003c0: 09b3 2fbd 1f71 5d3e 33c2 223e eb9c b7bc
000003d0: 09c7 063d 9088 8dbe 12df 03bd 5635 c7be
000003e0: a84a 2f3f 39e5 e93f 22a3 3dbf 7f18 5dbd
000003f0: b3d4 733e 2a21 c0bc 3e43 213e 3b27 74bd

fcs1.bias f4 [400]
-0.0048008906 -0.15330721 -0.0011925764 -0.0313761 0.13990934 -0.11777043 0.027768288 -0.14621592
0.0081157265 0.029702786 -0.087627746 -0.015539473 0.09627664 -0.123970725 -0.11604689 0.091085106
0.11007126 -0.16524273 0.03721347 -0.1500619 0.11583148 0.1046256 -0.0967971 0.037517395
0.07186363 -0.15333861 0.083185226 0.012771425 0.10995683 0.020563424 0.02408339 -0.012763596
0.13652624 -0.15038395 -0.062456664 -0.06281927 0.15805763 0.00080913556 -0.12866575 0.09186276
-0.029355735 -0.116213985 -0.0017254384 -0.04276454 -0.14565063 0.16021734 -0.117974356 0.077594206
-0.10439678 -0.015225892 0.15365715 0.16453186 -0.09746626 -0.12684676 -0.15762535 -0.06902528
-0.054183096 -0.027594192 0.007803434 0.137919 0.1608362 0.15959774 0.17346318 0.09742873
-0.107881285 0.015794888 0.050561458 -0.027734807 -0.16307403 -0.035005238 -0.1621952 -0.16535096
-0.13464984 -0.033153858 -0.022199078 0.16718899 0.06232985 -0.041960526 -0.14390613 -0.124080434
-0.16074611 0.019894121 -0.07923453 0.045063786 0.16531602 0.047601007 -0.1701515 0.14051008
0.00043069688 -0.02638034 0.032310653 0.08585041 -0.056106575 -0.12482756 -0.10514026 -0.13264133
0.005875376 0.109272465 -0.09154643 -0.09114149 -0.013655691 0.07652509 0.13936877 0.053023376
-0.085104875 0.07727925 -0.010492697 0.03282626 -0.15847324 -0.05092137 0.08845563 0.04943764
-0.1510056 0.058688637 -0.00223576 0.109067045 0.0998214 0.14731008 0.10469558 -0.04890068
-0.15592538 0.044430405 -0.1301275 0.13319944 -0.0784463 -0.17028475 0.044956625 0.09432617
-0.038536973 -0.058261998 -0.11737885 -0.16016363 0.008257519 -0.17171584 -0.16927506 0.021596357
-0.13865966 -0.11000597 0.032647826 0.0046620346 -0.12588438 0.083920166 -0.058937486 -0.09999845
-0.03671813 -0.11445124 0.07368106 -0.04948555 -0.07407731 0.059799723 0.13031271 0.16190997
0.008077426 0.16297694 0.114937015 -0.01987411 -0.09341872 0.08445034 -0.101784006 -0.064308226
0.0991474 -0.04961406 -0.023891468 -0.019101262 0.10265404 0.033183336 -0.04795221 0.038929433
0.03974913 0.05942212 0.08024156 0.058723833 -0.11697861 0.16195935 -0.005559395 0.014318614
0.16054578 0.029989736 0.103817806 -0.14087404 -0.1250374 -0.062643304 0.034817994 -0.14696169
-0.09615495 0.0018629925 0.12990308 0.16418874 0.15481772 -0.1453177 0.09719667 -0.17142756
0.062366802 0.133124 -0.13441965 0.08831557 0.17030302 -0.027999528 -0.13967678 -0.086560056
-0.10737606 -0.1327525 -0.08184272 -0.106998645 -0.049199007 -0.13614868 0.11452192 0.09971273
-0.06568731 0.0065721236 0.08321997 0.07669416 -0.06040208 -0.10313242 -0.10486957 -0.028132997
-0.084244944 -0.13083026 0.14936893 -0.011144846 0.10229988 -0.06512926 -0.15485351 -0.16840976
0.08667766 -0.14930062 -0.13420913 -0.13021736 -0.12647319 0.09662387 -0.058388695 -0.14264561
-0.08316544 -0.1248408 0.09774288 0.15157707 -0.07477333 -0.011129042 -0.011475957 0.08628741
-0.07286038 0.1341449 0.0046894173 0.022750294 -0.08270783 0.08055124 0.16528122 0.09734745
-0.11086995 0.021974117 -0.07152214 0.032842662 0.06581129 0.122169234 -0.124277264 0.01904574
00000000: ca50 9dbb 91fc 1cbe 3950 9cba 3a84 00bd
00000010: 6544 0f3e a031 f1bd 527a e33c a0b9 15be
00000020: d3f7 043c 4253 f33c 2d76 b3bd 4699 7ebc
00000030: b02c c53d 5de4 fdbd fea9 edbd d48a ba3d
00000040: 0a6d e13d 6435 29be 276d 183d d4a9 19be
00000050: 0e39 ed3d f245 d63d 8f3d c6bd d7ab 193d
00000060: 3d2d 933d cc04 1dbe 045d aa3d 3d3f 513c
00000070: 0c31 e13d a074 a83c 884a c53c 671e 51bc
00000080: 89cd 0b3e 40fe 19be 8fd2 7fbd 64a7 80bd
00000090: dcd9 213e 2b1c 543a f4c0 03be 8b22 bc3d
000000a0: 707b f0bc 9901 eebd 1b28 e2ba df29 2fbd
000000b0: 7025 15be 0410 243e 8a9c f1bd b6e9 9e3d
000000c0: fbcd d5bd 0576 79bc 4d58 1d3e 0a7b 283e
000000d0: 649c c7bd 1ee4 01be 8a68 21be 205d 8dbd
000000e0: 18ef 5dbd 370d e2bc f3b3 ff3b a33a 0d3e
000000f0: 3fb2 243e 976d 233e 55a0 313e b788 c73d
00000100: ddf0 dcbd 4864 813c 8819 4f3d 1b34 e3bc
00000110: e1fc 26be a761 0fbd 8016 26be c351 29be
00000120: a6e1 09be 57cc 07bd d7da b5bc 9733 2b3e
00000130: 964d 7f3d cdde 2bbd 215c 13be e21d febd
00000140: a19a 24be fff8 a23c b745 a2bd ce94 383d
00000150: 9a48 293e 46f9 423d 323c 2ebe e0e1 0f3e
00000160: 28cf e139 951b d8bc 2d58 043d 57d2 af3d
00000170: 02d0 65bd 97a5 ffbd c753 d7bd 21d3 07be
00000180: 3a86 c03b 3eca df3d b27c bbbd 64a8 babd
00000190: 1fbc 5fbc 30b9 9c3d b0b6 0e3e 0a2f 593d
000001a0: 774b aebd 9544 9e3d 90e9 2bbc d474 063d
000001b0: cf46 22be ed92 50bd 3a28 b53d 1f7f 4a3d
000001c0: 36a1 1abe 7f63 703d d485 12bb 8b5e df3d
000001d0: 2a6f cc3d 74d8 163e a36a d63d 144c 48bd
000001e0: e7aa 1fbe a8fc 353d 2540 05be 6f65 083e
000001f0: 74a8 a0bd 205f 2ebe 7024 383d 142e c13d
00000200: f2d8 1dbd 22a4 6ebd 5364 f0bd ef01 24be
00000210: 8c4a 073c 47d6 2fbe 7156 2dbe d8ea b03c
00000220: ccfc 0dbe cf4a e1bd bab9 053d fbc3 983b
00000230: d6e7 00be 56de ab3d 6f68 71bd fdcb ccbd
00000240: c065 16bd 6965 eabd 18e6 963d 5cb1 4abd
00000250: d8b5 97bd 8ef0 743d b270 053e bacb 253e
00000260: 2e57 043c 6de3 263e 1964 eb3d 08cf a2bc
00000270: 5052 bfbd 4df4 ac3d 2274 d0bd 08b4 83bd
00000280: cb0d cb3d 1d38 4bbd 0ab8 c3bc 407a 9cbc
00000290: 483c d23d 40eb 073d 8969 44bd 7874 1f3d
000002a0: fccf 223d 9c64 733d b055 a43d 6788 703d
000002b0: 7b92 efbd acd8 253e 962b b6bb 9f98 6a3c
000002c0: 1d66 243e 09ad f53c 6e9e d43d 4941 10be
000002d0: ce09 00be 224b 80bd 509d 0e3d 207d 16be
000002e0: e3ec c4bd a82f f43a 5005 053e 1821 283e
000002f0: 8988 1e3e 2ace 14be 0c0f c73d b58a 2fbe
00000300: 5574 7f3d a851 083e 4ea5 09be cbde b43d
00000310: ea63 2e3e 445f e5bc 6e07 0fbe 6646 b1bd
00000320: fbe7 dbbd 45f0 07be 289d a7bd 1b22 dbbd
00000330: e684 49bd 8f6a 0bbe 788a ea3d 3036 cc3d
00000340: 1287 86bd f85a d73b 3b6f aa3d d411 9d3d
00000350: 2c68 77bd 1737 d3bd dbc5 d6bd 2c77 e6bc
00000360: 9d88 acbd 5ef8 05be 2bf4 183e df98 36bc
00000370: 9982 d13d 7d62 85bd eb91 1ebe 9c73 2cbe
00000380: 0f84 b13d 43e2 18be 1e6e 09be b357 05be
00000390: 3082 01be bce2 c53d fc28 6fbd b111 12be
000003a0: a452 aabd 89ac ffbd 6b2d c83d 0537 1b3e
000003b0: c222 99bd 9656 36bc a705 3cbc 74b7 b03d
000003c0: d337 95bd 485d 093e afa9 993b d35e ba3c
000003d0: b962 a9bd 0cf8 a43d 7b3f 293e 1a5e c73d
000003e0: c90f e3bd 1003 b43c 337a 92bd 0786 063d
000003f0: 12c8 863d dd33 fa3d 1485 febd d005 9c3c

bn1.weight f4 [400]
0.5787601 0.57121855 0.55866826 0.3949675 0.57858074 0.57642037 0.0011512856 0.5028823
0.49300334 0.34743473 0.4516799 0.5773078 0.48104304 0.5440392 0.83275104 0.42407376
0.41713822 0.4418787 0.6432694 0.40379173 0.6097645 0.40501517 0.5471124 0.5469768
0.5401339 0.5340896 0.6241874 0.7794179 0.31888652 0.46184528 0.69243026 0.6992717
0.70642334 0.45419833 0.63538706 0.4685292 0.64580953 0.5011654 0.60741097 0.35370946
0.44715342 0.51229525 0.6388082 0.57232785 0.7873086 0.54816395 0.5003653 0.6864361
0.45382017 0.67425233 0.63803506 0.550641 0.742308 0.40787005 0.4766938 0.60322624
0.5052839 0.47845566 0.4574031 0.69742936 0.47942758 0.5318572 0.5693964 0.53527975
0.6247553 0.47382814 0.77081305 0.5944982 0.43506217 0.5370216 0.3829828 0.35964587
0.5577602 0.44982347 0.6605054 0.49205863 0.49330956 0.36847237 0.4954287 0.6118929
0.4541859 0.69139916 0.6940687 0.40245193 0.41076532 0.5173321 0.5247521 0.58837855
0.38164166 0.5863206 0.7403261 0.6153427 0.4861982 0.53113854 0.492588 0.7468043
0.52092844 0.5512987 0.52558964 0.5646382 0.38008606 0.61131424 0.41582102 0.4328335
0.6366 0.47080222 0.40653992 0.6548715 0.6953811 0.42029062 0.5813093 0.5588446
0.57017124 0.61638165 0.35836944 0.49791417 0.6885266 0.4880031 0.40703088 0.5441657
0.6261891 0.45665976 0.5151541 0.6309862 0.5420421 0.42190915 0.3804585 0.4669767
0.54573095 0.6027981 0.41325888 0.5521048 0.48520827 0.5413938 0.4945031 0.43508822
0.65027046 0.44572747 0.4298059 0.544838 0.49515048 0.51126295 0.70794976 0.5317918
0.42683938 0.5648134 0.43542877 0.47492966 0.60469663 0.6072077 0.40464422 0.49403453
0.37032154 0.43767402 0.67597604 0.54220086 0.49274024 0.6763003 0.61408234 0.64280677
0.51925284 0.5266723 0.5221083 0.53316635 0.5385049 0.51589423 0.3565059 0.55274516
0.66667527 0.54001486 0.44769362 0.4043668 0.46768156 0.5356835 0.42453018 0.42129067
0.570755 0.5934936 0.6166843 0.55544883 0.4382605 0.53705007 0.4854459 0.58693427
0.43929756 0.53792924 0.4558282 0.5045509 0.6352718 0.49261293 0.44210446 0.63922685
0.44350493 0.4783782 0.4956231 0.5279208 0.6402627 0.38958728 0.6058156 0.43591017
0.61394465 0.55907404 0.5099583 0.58714396 0.60236406 0.56966794 -0.0005131772 0.6074488
0.52915084 0.37021884 0.5345736 0.7456337 0.5664139 0.7560106 0.526519 0.64216447
0.4438343 0.5367186 0.5352718 0.4970088 0.58347625 0.59988517 0.7968475 0.44149786
0.4949214 0.47377285 0.6234222 0.4078242 0.62737006 0.5251373 0.72353435 0.49693874
0.70326895 0.59052145 0.48458633 0.48634115 0.61725074 0.51809067 0.50708455 0.48168823
0.49333587 0.5141721 0.5895187 0.5615885 0.5076392 0.6420243 0.5534783 0.5660828
0.47711226 0.6403213 0.54036736 0.6046124 0.62205625 0.4461184 0.48462987 0.47024754
00000000: 9f29 143f 613b 123f e204 0f3f 2e39 ca3e
00000010: de1d 143f 4990 133f bce6 963a e5bc 003f
00000020: ef6a fc3e f7e2 b13e 9642 e73e 72ca 133f
00000030: 464b f63e 2746 0b3f 2c2f 553f 3220 d93e
00000040: 2493 d53e ed3d e23e 4ead 243f cabd ce3e
00000050: 8719 1c3f 265e cf3e 8f0f 0c3f ac06 0c3f
00000060: 3746 0a3f 19ba 083f bfca 1f3f ee87 473f
00000070: 1845 a33e fc76 ec3e 1c43 313f 7803 333f
00000080: 29d8 343f af8c e83e baa8 223f 0fe3 ef3e
00000090: c653 253f 604c 003f 497f 1b3f 6819 b53e
000000a0: 4bf1 e43e c825 033f ef88 233f 1484 123f
000000b0: 0e8d 493f 7954 0c3f f117 003f 47ba 2f3f
000000c0: 1e5b e83e cd9b 2c3f 4456 233f cff6 0c3f
000000d0: e607 3e3f 58d4 d03e 3611 f43e 096d 1a3f
000000e0: 495a 013f 24f8 f43e bd30 ea3e bb8a 323f
000000f0: 8877 f53e cb27 083f f6c3 113f 1808 093f
00000100: f7ef 1f3f 9a99 f23e 0154 453f 0931 183f
00000110: 78c0 de3e 3f7a 093f 5216 c43e 8123 b83e
00000120: 5fc9 0e3f 434f e63e e216 293f 1cef fb3e
00000130: 1293 fc3e 69a8 bc3e d5a8 fd3e 03a5 1c3f
00000140: 0e8b e83e 89ff 303f 7cae 313f 2e0e ce3e
00000150: d54f d23e e06f 043f 2756 063f fa9f 163f
00000160: 8966 c33e 1b19 163f 0386 3d3f 1987 1d3f
00000170: f8ee f83e b2f8 073f 7f34 fc3e 912e 3f3f
00000180: 915b 053f e921 0d3f 0b8d 063f 218c 103f
00000190: a49a c23e 177f 1c3f 7ee6 d43e 5a9c dd3e
000001a0: 38f8 223f fd0c f13e 0026 d03e a9a5 273f
000001b0: 7f04 323f 5530 d73e b0d0 143f 7110 0f3f
000001c0: bef6 113f 30cb 1d3f 337c b73e 9bee fe3e
000001d0: 4743 303f 8bdb f93e 5a66 d03e 714e 0b3f
000001e0: ee4d 203f 4fcf e93e 24e1 033f 5088 213f
000001f0: 45c3 0a3f 7a04 d83e 75cb c23e 9217 ef3e
00000200: 06b5 0b3f fa50 1a3f ab96 d33e bd56 0d3f
00000210: 386d f83e c998 0a3f 832f fd3e e2c3 de3e
00000220: 2078 263f 6436 e43e 850f dc3e 817a 0b3f
00000230: 5d84 fd3e 21e2 023f 323c 353f 8223 083f
00000240: b18a da3e 9c97 103f 85f0 de3e fb29 f33e
00000250: 66cd 1a3f f771 1b3f 872d cf3e 18f2 fc3e
00000260: c99a bd3e cf16 e03e c40c 2d3f adcd 0a3f
00000270: 7348 fc3e 0422 2d3f 8034 1d3f fc8e 243f
00000280: c1ed 043f ffd3 063f e4a8 053f 977d 083f
00000290: 75db 093f a511 043f f187 b63e b580 0d3f
000002a0: 3bab 2a3f 6a3e 0a3f 1938 e53e 2a09 cf3e
000002b0: f573 ef3e 8e22 093f 055c d93e 69b3 d73e
000002c0: 001d 123f 32ef 173f 06df 1d3f e531 0e3f
000002d0: ae63 e03e 1d7c 093f 5d8c f83e 5341 163f
000002e0: 9ceb e03e bbb5 093f 5062 e93e 3f2a 013f
000002f0: 2ca1 223f c337 fc3e 845b e23e 5fa4 233f
00000300: 1413 e33e fded f43e 50c2 fd3e d125 073f
00000310: 42e8 233f fc77 c73e bb16 1b3f 9e2f df3e
00000320: 7a2b 1d3f 7a1f 0f3f a18c 023f 114f 163f
00000330: 8834 1a3f c2d5 113f bd86 06ba c481 1b3f
00000340: 6e76 073f 538d bd3e d1d9 083f dae1 3e3f
00000350: 8000 113f e989 413f f3c9 063f e464 243f
00000360: 403e e33e 6466 093f 9307 093f f077 fe3e
00000370: b35e 153f 1392 193f 33fe 4b3f 020c e23e
00000380: 5666 fd3e 5b92 f23e 9998 1f3f 55ce d03e
00000390: 539b 203f 666f 063f 8c39 393f c16e fe3e
000003a0: 6f09 343f 6a2c 173f b31b f83e b501 f93e
000003b0: 2504 1e3f 97a1 043f 4bd0 013f d79f f63e
000003c0: 8596 fc3e c8a0 033f b3ea 163f 44c4 0f3f
000003d0: a5f4 013f b45b 243f c1b0 0d3f cdea 103f
000003e0: 0f48 f43e 19ec 233f 8455 0a3f e1c7 1a3f
000003f0: 143f 1f3f a269 e43e 6821 f83e 49c4 f03e

bn1.bias f4 [400]
-0.4201025 -0.61101866 -0.49564335 -0.40447798 -0.5159932 -0.13445494 -0.04589902 -0.5238571
-0.48010468 -0.2809231 -0.32554883 -0.5209072 -0.37507853 -0.689613 -0.56694406 -0.2753669
-0.2438029 -0.17304425 -0.48520046 -0.3037872 -0.5509579 -0.24368878 -0.46090445 -0.6254124
-0.57615924 -0.56903005 -0.26091227 -0.39035282 -0.25420907 -0.34818956 -0.5316416 -0.80350876
-0.42568025 -0.24166605 -0.6350326 -0.38857433 -0.5989733 -0.434753 -0.8285376 -0.21051618
-0.5496957 -0.56330895 -0.53952485 -0.21887718 -0.7128959 -0.55137676 -0.5251111 -0.612449
-0.48793906 -0.5545037 -0.60361934 -0.42818737 -0.71749866 -0.17897187 -0.517378 -0.38046733
-0.15959808 -0.37915134 -0.3626488 -0.7691674 -0.4093018 -0.43842617 -0.4392431 -0.2692527
-0.6582235 -0.34663475 -0.44164366 -0.39345583 -0.32203084 -0.5213225 -0.17208923 -0.26436904
-0.4944065 -0.34332964 -0.5492761 -0.33276182 -0.6770841 -0.008206554 -0.2749381 -0.5296547
-0.5106843 -0.40546504 -0.096628256 -0.3086205 -0.45030043 -0.22687547 -0.23185559 -0.680925
-0.3209591 -0.3885588 -0.430749 -0.24834006 -0.60270786 -0.3958761 -0.4300795 -0.34989884
-0.5903006 -0.3524764 -0.3528899 -0.54821986 -0.08698924 -0.5568443 -0.4636761 -0.23080748
-0.46879044 -0.09985641 -0.3676021 -0.37671018 -0.5567568 -0.18262355 -0.31469303 -0.38373682
-0.46449503 -0.55086404 -0.20390497 -0.5977695 -0.637855 -0.51330626 -0.46631446 -0.43649426
-0.59448946 -0.4531481 -0.27746484 -0.7373646 -0.33131832 -0.26149207 -0.17238887 -0.37211248
-0.38605058 -0.5615253 -0.1585199 -0.36987454 -0.671205 -0.2733469 -0.48902366 -0.38342834
-0.6832243 -0.69242555 -0.14697748 -0.34415784 -0.5208865 -0.43728164 -0.4846388 -0.20100714
-0.2994973 -0.41128653 -0.29291287 -0.3920862 -0.5216838 -0.6362846 -0.33264536 -0.06577862
-0.17597874 -0.3478788 -0.51159644 -0.46977293 -0.31426668 -0.6529853 -0.2278264 -0.33950576
-0.50119984 -0.45662746 -0.5591423 -0.37610993 -0.54817325 -0.31365776 -0.2807919 -0.15909213
-0.71564156 -0.3879688 -0.32385525 -0.33820575 -0.2168648 -0.33549678 -0.09601692 -0.2997319
-0.50755775 -0.52933806 -0.4599413 -0.5354529 -0.06066161 -0.08641412 -0.5686126 -0.2914703
-0.49660686 -0.62839943 -0.1682866 -0.33800188 -0.5824999 -0.37729725 -0.2546296 -0.63564134
-0.30935046 -0.25979406 -0.5450878 -0.49211404 -0.33498508 -0.17789465 -0.4902004 -0.3984572
-0.44843104 -0.4131533 -0.38069144 -0.52262217 -0.53839767 -0.46313372 -0.006405472 -0.49117175
-0.49127775 -0.06544917 -0.5342307 -0.2186246 -0.55859643 -0.59218335 -0.32477957 -0.4910622
-0.3255837 -0.52353966 -0.26153305 -0.42078796 -0.7106921 -0.32230404 -0.5587127 -0.3279585
-0.32738477 -0.5563999 -0.3223694 -0.2955951 -0.26315665 -0.5351259 -0.36321965 -0.56640977
-0.52126676 -0.2261275 -0.48526153 -0.18863916 -0.47346652 -0.3435198 -0.4520062 -0.49513444
-0.47586563 -0.53901905 -0.23821707 -0.41913846 -0.27219096 -0.46400353 -0.45835164 -0.35261548
-0.27442914 -0.42976755 -0.48827723 -0.45554423 -0.45583084 -0.60887516 -0.47819272 -0.48645255
00000000: ad17 d7be b86b 1cbf f7c4 fdbe bd17 cfbe
00000010: 2118 04bf 8eae 09be 9c00 3cbd 801b 06bf
00000020: 48d0 f5be 27d5 8fbe 56ae a6be 2d5a 05bf
00000030: 4b0a c0be 7a8a 30bf 3f23 11bf e4fc 8cbe
00000040: 78a7 79be 8332 31be 326c f8be ff89 9bbe
00000050: 940b 0dbf 8d89 79be abfb ebbe 071b 20bf
00000060: 2c7f 13bf f4ab 11bf 4b96 85be 53dc c7be
00000070: b127 82be e745 b2be aa19 08bf c0b2 4dbf
00000080: c3f2 d9be 4e77 77be 7f91 22bf 37f3 c6be
00000090: 5056 19bf f297 debe 0a1b 54bf 8e91 57be
000000a0: dbb8 0cbf 0435 10bf 4d1e 0abf 5721 60be
000000b0: 5880 36bf 0727 0dbf ae6d 06bf 75c9 1cbf
000000c0: 26d3 f9be f4f3 0dbf cc86 1abf 603b dbbe
000000d0: fead 37bf 6744 37be e272 04bf 9dcc c2be
000000e0: ae6d 23be 2020 c2be 1aad b9be 28e8 44bf
000000f0: 0190 d1be 6579 e0be 79e4 e0be 7ddb 89be
00000100: 5681 28bf 1c7a b1be 1e1f e2be 0b73 c9be
00000110: 3ae1 a4be 6475 05bf 2938 30be 615b 87be
00000120: d922 fdbe e7c8 afbe 5c9d 0cbf c25f aabe
00000130: 6255 2dbf c874 06bc b0c4 8cbe 7397 07bf
00000140: 35bc 02bf 1d99 cfbe 09e5 c5bd 8203 9ebe
00000150: c78d e6be 0b52 68be 8d6b 6dbe 1a51 2ebf
00000160: c054 a4be 2ef1 c6be 228b dcbe db4c 7ebe
00000170: 104b 1abf 46b0 cabe 6133 dcbe f125 b3be
00000180: f11d 17bf c977 b4be fcad b4be 2358 0cbf
00000190: 6a27 b2bd 598d 0ebf f466 edbe cc58 6cbe
000001a0: 4d05 f0be 8481 ccbd 5836 bcbe 28e0 c0be
000001b0: 9d87 0ebf ab01 3bbe 721f a1be 2779 c4be
000001c0: 4bd2 edbe 6d05 0dbf 77cc 50be 6c07 19bf
000001d0: 774a 23bf 0a68 03bf c5c0 eebe 2d7c dfbe
000001e0: 7630 18bf 0703 e8be df0f 8ebe edc3 3cbf
000001f0: 8ea2 a9be 4ae2 85be b586 30be 8785 bebe
00000200: 6ca8 c5be 1fc0 0fbf 0a53 22be 3260 bdbe
00000210: 17d4 2bbf 20f4 8bbe 4f61 fabe b850 c4be
00000220: cae7 2ebf cd42 31bf 4481 16be 7535 b0be
00000230: d158 05bf 61e3 dfbe 9422 f8be d1d4 4dbe
00000240: b657 99be 2694 d2be adf8 95be 86bf c8be
00000250: 128d 05bf 8ce3 22bf 7e50 aabe f1b6 86bd
00000260: c533 34be 2c1d b2be fcf7 02bf 1486 f0be
00000270: 90e7 a0be 0b2a 27bf 534b 69be b3d3 adbe
00000280: a24e 00bf 13cb e9be f323 0fbf 7b91 c0be
00000290: 1555 0cbf c097 a0be f5c3 8fbe 0ce9 22be
000002a0: 4934 37bf d9a3 c6be 5bd0 a5be 4e29 adbe
000002b0: ce11 5ebe 3cc6 abbe 85a4 c4bd 7676 99be
000002c0: 4eef 01bf b382 07bf 6d7d ebbe 7113 09bf
000002d0: 4f78 78bd e3f9 b0bd 9890 11bf 983b 95be
000002e0: 4143 febe c9de 20bf 5353 2cbe 950e adbe
000002f0: b71e 15bf 1b2d c1be d05e 82be 64b9 22bf
00000300: 2f63 9ebe ba03 85be e08a 0bbf 5ff6 fbbe
00000310: 2a83 abbe 042a 36be 8cfb fabe 9502 ccbe
00000320: c198 e5be d488 d3be fde9 c2be 91ca 05bf
00000330: 6ed4 09bf dd1f edbe fee4 d1bb dd7a fbbe
00000340: c288 fbbe 370a 86bd 58c3 08bf 21df 5fbe
00000350: 2d00 0fbf 5499 17bf 8249 a6be 816c fbbe
00000360: e8b2 a6be b206 06bf a9e7 85be 8571 d7be
00000370: ebef 35bf 0905 a5be cc07 0fbf 2dea a7be
00000380: fa9e a7be 3970 0ebf 9a0d a5be 3e58 97be
00000390: 78bc 86be 03fe 08bf edf7 b9be 3b00 11bf
000003a0: bd71 05bf f88d 67be 3374 f8be a02a 41be
000003b0: 346a f2be d4e1 afbe 5b6d e7be 4382 fdbe
000003c0: a9a4 f3be 27fd 09bf 2def 73be 5199 d6be
000003d0: 9d5c 8bbe df91 edbe 11ad eabe 048a b4be
000003e0: fa81 8cbe 7e0a dcbe 79ff f9be 183d e9be
000003f0: a962 e9be 3edf 1bbf add5 f4be 4f10 f9be

bn1.running_mean f4 [400]
-1.0250862 -1.3552237 -1.1737592 0.54060787 1.0411835 0.037530404 0.20602907 -0.27311963
0.52343637 -0.76448965 -0.541894 -0.17184499 -1.1549785 -0.53788507 -0.06717238 -1.5219263
0.9523561 -0.8251762 -0.6902153 -0.49409494 0.7306481 0.65997165 -0.4305458 -0.31740355
-0.29878172 -0.004149013 0.85175705 -0.17622128 -1.1825832 0.20038396 -0.7246098 -0.5169922
1.2341732 0.85021293 -1.3451453 0.096977904 0.5165177 0.29868466 -0.6395232 -0.03377938
0.21177717 -1.2943252 0.25640416 -0.2543439 1.0930649 -0.47177735 1.08558 -0.028260052
-0.10355316 -0.044258542 -1.9711276 -0.69273764 -1.380874 0.5056404 -0.9272445 -0.6457802
-0.4610369 0.6007938 -0.79920906 -0.47424865 0.3073305 1.2847068 -0.954128 -0.8078734
-0.5918481 -0.67292356 1.0029185 -0.4006644 0.8992444 0.065431654 2.7891934 -1.1589171
3.5625794 -1.295738 -0.06259495 0.22094804 -0.96056473 1.2745321 -0.1384722 -0.40943724
0.41015476 0.21511112 0.11192096 0.7283908 0.37985048 0.33062923 -0.78471583 -0.8097483
-0.22241452 -0.3095895 -0.62785524 -0.1725804 -0.61209285 0.069047846 -1.303471 -1.0678126
-0.7966256 -0.07185389 0.48195294 -1.078128 1.0216244 1.2325233 -0.71889263 -0.48872617
-0.5580851 1.7370366 -0.09220264 0.2918765 -0.97683144 2.7010515 -0.4541754 -0.0688951
0.7120535 -0.69197977 -0.90077305 0.19574296 1.3014832 0.2338895 -0.37934253 -0.5911924
0.34881604 -0.6752067 -0.18217489 -1.2771763 -0.43184566 -0.95547146 1.6794081 -0.8739054
1.7137145 -1.3946464 1.1178815 0.14723064 -0.017249724 -0.4891782 -1.8871357 -1.6703098
1.3996671 -0.31180584 2.3071086 -0.00872379 -0.7136325 0.0008626377 -1.0471532 0.18820673
1.4511437 0.002042073 0.9011993 -1.9190944 -0.5301223 1.1925832 -1.70321 1.1981951
-0.87110573 -0.77038157 -0.0036605713 1.0306125 -1.8029717 2.5080626 -1.305577 0.13562158
-0.47019643 -0.47015688 1.7044662 -0.7617901 1.7269231 -0.0060035973 1.4266909 0.80365855
-1.9082941 -0.5366497 -0.49760547 0.4268778 -0.112907864 0.056507226 1.4382211 1.7908093
-0.071154594 0.9126471 -0.3636325 -0.45099002 -1.2443831 0.3495109 0.2789605 0.2654771
-0.4476933 -2.405093 -0.68807524 -0.8070625 -0.58959574 -0.9678359 1.1360776 -0.10351296
0.7572625 2.053884 0.8675152 -0.2787658 0.79665154 -1.1918894 -0.19776776 0.08575925
-1.5775776 -0.59873456 -1.0782281 -0.6220268 -0.55915266 0.6846849 0.068060584 0.2906685
-0.78836644 0.5542456 0.020413136 0.4891918 -0.75305325 0.06503259 0.42778298 -0.628421
0.48639056 -1.2716278 0.14511596 -1.1876006 0.18439673 2.2795348 -0.26189715 1.0931298
-2.1331213 -2.3335686 -0.10093994 -0.819474 -0.5319279 -1.0177828 0.8935 -0.80741036
0.11908527 0.3774849 -0.75153154 0.17826109 -1.6346388 -0.61044896 -1.0140976 -0.028932964
0.6229123 -0.8174935 0.043980137 -0.10850123 -0.1755662 -0.6972822 -0.68070304 0.1639091
0.8009289 -0.30706757 -0.26028818 0.08236818 0.074205905 1.1781167 -3.817334 -0.41687205
00000000: 0636 83bf f877 adbf be3d 96bf 4765 0a3f
00000010: 8045 853f 7bb9 193d 49f9 523e 56d6 8bbe
00000020: edff 053f 98b5 43bf 91b9 0abf 22f8 2fbe
00000030: 56d6 93bf d6b2 09bf ac91 89bd 7bce c2bf
00000040: 9ccd 733f bf3e 53bf f3b1 30bf 03fa fcbe
00000050: c10b 3b3f e7f3 283f 8070 dcbe b882 a2be
00000060: ebf9 98be 72f4 87bb c00c 5a3f 5a73 34be
00000070: e35e 97bf 7431 4d3e 0780 39bf 9a59 04bf
00000080: 63f9 9d3f 8ea7 593f b92d acbf 5a9c c63d
00000090: 813a 043f 32ed 983e cbb7 23bf 3f5c 0abd
000000a0: 1ddc 583e 73ac a5bf 6847 833e 5d39 82be
000000b0: 8de9 8b3f cd8c f1be 49f4 8a3f a081 e7bc
000000c0: ae13 d4bd 7248 35bd e94d fcbf 4157 31bf
000000d0: 7bc0 b0bf a671 013f e55f 6dbf da51 25bf
000000e0: 070d ecbe 9fcd 193f f798 4cbf b8d0 f2be
000000f0: 6c5a 9d3e 4671 a43f bc41 74bf cbd0 4ebf
00000100: 5b83 17bf b844 2cbf a25f 803f e223 cdbe
00000110: e234 663f 0801 863d 2582 3240 6557 94bf
00000120: 4d01 6440 beda a5bf c831 80bd 3440 623e
00000130: 92e7 75bf de23 a33f a8cb 0dbe c2a1 d1be
00000140: ceff d13e 1746 5c3e d136 e53d d277 3a3f
00000150: c37b c23e 3c48 a93e 23e3 48bf aa4b 4fbf
00000160: a2c0 63be 8482 9ebe 1fbb 20bf ebb8 30be
00000170: 1eb2 1cbf f568 8d3d 23d8 a6bf 15ae 88bf
00000180: a8ef 4bbf 2228 93bd 89c2 f63e 1900 8abf
00000190: 97c4 823f 53c3 9d3f 5909 38bf 513a fabe
000001a0: aade 0ebf 3757 de3f bdd4 bcbd d670 953e
000001b0: a011 7abf 07de 2c40 ae89 e8be e018 8dbd
000001c0: 2349 363f 9625 31bf 1099 66bf d870 483e
000001d0: 0097 a63f bb80 6f3e 2f39 c2be 6358 17bf
000001e0: 0498 b23e 59da 2cbf 0e8c 3abe 837a a3bf
000001f0: e01a ddbe c799 74bf d8f6 d63f 44b8 5fbf
00000200: ff5a db3f c683 b2bf be16 8f3f a1c3 163e
00000210: 4b4f 8dbc 9175 fabe aa8d f1bf b6cc d5bf
00000220: 4b28 b33f 04a5 9fbe aba7 1340 3aee 0ebc
00000230: 9fb0 36bf a322 623a 1e09 86bf 44b9 403e
00000240: 14bf b93f 4dd4 053b ffb4 663f e3a4 f5bf
00000250: 18b6 07bf 91a6 983f c902 dabf 755e 993f
00000260: c900 5fbf ba37 45bf 32e6 6fbb 1ceb 833f
00000270: c7c7 e6bf 1984 2040 261d a7bf 62e0 0a3e
00000280: 96bd f0be 67b8 f0be f32b da3f ad04 43bf
00000290: d10b dd3f d3b9 c4bb cf9d b63f 91bc 4d3f
000002a0: fb42 f4bf e061 09bf 25c6 febe ba8f da3e
000002b0: 3d3c e7bd 1f74 673d a117 b83f 3d39 e53f
000002c0: 80b9 91bd 3ea3 693f 0a2e babe 2ae8 e6be
000002d0: f247 9fbf 18f3 b23e e9d3 8e3e 9dec 873e
000002e0: 0e38 e5be 0bed 19c0 b325 30bf a69b 4ebf
000002f0: bfef 16bf 18c4 77bf fe6a 913f 9afe d3bd
00000300: f5db 413f d672 0340 7a15 5e3f 64ba 8ebe
00000310: 5bf1 4b3f d58f 98bf a283 4abe 8ca2 af3d
00000320: 10ee c9bf ab46 19bf 6103 8abf 263d 1fbf
00000330: a124 0fbf 8247 2f3f 5963 8b3d 80d2 943e
00000340: 62d2 49bf 0ae3 0d3f 7339 a73c 5977 fa3e
00000350: 19c8 40bf ce2f 853d 5f06 db3e 33e0 20bf
00000360: 2f08 f93e b3c4 a2bf 4799 143e 4c03 98bf
00000370: 7fd2 3c3e e6e3 1140 6217 86be adeb 8b3f
00000380: 0f85 08c0 3059 15c0 99b9 cebd 0cc9 51bf
00000390: 6d2c 08bf b546 82bf 6abc 643f 72b2 4ebf
000003a0: fae2 f33d b345 c13e 5f64 40bf 138a 363e
000003b0: d83b d1bf 6246 1cbf f3cd 81bf d304 edbc
000003c0: 2e77 1f3f 4147 51bf 8424 343d e535 debd
000003d0: a0c7 33be 1681 32bf 8e42 2ebf cad7 273e
000003e0: ad09 4d3f f637 9dbe 7e44 85be a6b0 a83d
000003f0: 44f9 973d 87cc 963f 334f 74c0 4170 d5be

bn1.running_var f4 [400]
4.6837015 4.108711 11.033546 5.4751806 3.0742612 6.435011 0.4862737 5.9795194
5.4825416 6.027107 7.9407387 2.4949336 7.301789 2.5930324 4.115577 8.34228
4.2432046 2.2435205 5.8281775 5.7903852 4.0809793 2.70493 3.7064857 8.605578
2.8744102 3.5368638 5.4349775 2.190533 5.6263227 7.578667 4.5506573 3.3414404
3.3692093 2.907149 4.502216 2.577646 5.6467767 5.081793 3.654475 2.374814
6.7821655 4.2049155 3.6062894 3.5907173 17.334219 5.5704083 3.5625868 7.545499
3.9332452 3.5862212 5.7206535 4.205804 5.1935883 1.9541034 2.8637846 7.06977
9.6370325 5.128725 3.4044285 3.0693228 3.1899154 8.121613 4.9606647 7.3878016
3.8477807 3.072122 3.3386884 3.7184274 3.7899861 9.938757 4.3313932 5.7269616
10.96228 6.306193 5.300669 3.1519153 3.8164296 17.343166 3.3785233 1.5501219
3.905512 3.3931942 3.5410557 2.364739 3.4381688 3.2923946 7.010846 5.024876
7.554682 3.706675 6.660909 3.567429 5.4807796 3.2756817 7.607437 6.079853
4.695548 19.359545 5.4995666 4.7637033 4.4477715 4.3125935 3.06226 4.184662
4.076251 6.4822216 2.9029212 3.3616536 5.6371784 4.321955 3.2578433 2.9809473
3.6814659 3.623927 3.8458426 2.3054957 4.3274145 3.7709072 3.9700751 3.8025136
4.314099 6.7098517 4.060149 9.483443 2.9404516 2.5363674 2.3914497 3.4879026
6.2315946 5.1404295 7.2317147 2.3869107 6.973427 3.121107 5.624488 4.3778796
4.557803 4.4240966 4.5099807 5.434103 4.312208 6.5046515 4.2978234 13.220342
4.529599 7.3073983 5.8285646 4.2377577 3.0584984 2.896303 4.654893 3.8633273
3.9578843 7.5680223 3.289848 3.7336874 4.6427565 5.2418995 5.007287 4.5566554
3.1466117 5.4217386 16.078228 5.1485023 3.666969 3.8915048 3.8269196 7.235062
7.8144703 5.184363 1.6623789 7.858762 5.2106586 3.964876 4.7921753 5.118791
2.9912796 3.531227 12.03587 6.1466637 9.896031 3.4638267 2.724355 4.6173286
6.5106325 3.7432501 8.325579 4.6645346 3.1546593 6.7587905 1.8883029 3.2057726
2.6558967 5.7497044 3.520056 3.0906723 3.1354709 6.651466 2.0615025 10.130587
3.1300213 3.146756 6.2116504 3.5031576 2.609463 4.9311323 0.4252638 12.858953
2.948242 2.8422782 2.5798016 2.6937127 2.9291363 4.8851266 3.8402905 8.22772
8.000815 4.173683 6.460857 5.1378427 17.617975 6.897721 3.2093399 5.225253
7.5573606 5.4598284 4.322103 5.979059 3.501679 4.746875 4.580136 5.117935
3.6989212 9.807122 3.2811894 5.572358 6.583605 3.5667624 2.8265936 4.9089155
4.33825 4.588101 3.1551857 4.3952007 5.6664643 6.1383605 7.6989 2.8399951
4.8916078 4.6373577 23.71872 4.799711 9.373832 4.5295134 9.975614 4.1823034
00000000: e2e0 9540 8f7a 8340 6889 3041 ae34 af40
00000010: b2c0 4440 9ceb cd40 def8 f83e 3958 bf40
00000020: fb70 af40 0fde c040 881a fe40 feac 1f40
00000030: 41a8 e940 3ef4 2540 cfb2 8340 fb79 0541
00000040: 55c8 8740 d795 0f40 6e80 ba40 d64a b940
00000050: 6297 8240 931d 2d40 1037 6d40 73b0 0941
00000060: 56f6 3740 fa5b 6240 56eb ad40 b131 0c40
00000070: d60a b440 7184 f240 fc9e 9140 29da 5540
00000080: 20a1 5740 bb0e 3a40 2712 9040 27f8 2440
00000090: 65b2 b440 0c9e a240 ebe2 6940 f4fc 1740
000000a0: 8007 d940 ab8e 8640 72cd 6640 50ce 6540
000000b0: 7bac 8a41 c940 b240 6c01 6440 ba74 f140
000000c0: 4aba 7b40 a684 6540 980f b740 f295 8640
000000d0: e031 a640 0f20 fa3f 3f48 3740 8e3b e240
000000e0: 4931 1a41 841e a440 28e2 5940 c96f 4440
000000f0: 9327 4c40 20f2 0141 c4bd 9e40 df68 ec40
00000100: 0a42 7640 a69d 4440 12ad 5540 b7fa 6d40
00000110: 228f 7240 2605 1f41 c69a 8a40 4543 b740
00000120: 8065 2f41 55cc c940 159f a940 fbb8 4940
00000130: 6240 7440 cebe 8a41 ba39 5840 656a c63f
00000140: e9f3 7940 182a 5940 a8a0 6240 e257 1740
00000150: f50a 5c40 98b6 5240 da58 e040 c9cb a040
00000160: f4bf f140 2a3a 6d40 2b26 d540 c250 6440
00000170: 8c62 af40 c5a4 5140 2070 f340 288e c240
00000180: ee41 9640 59e0 9a41 73fc af40 4270 9840
00000190: 2554 8e40 c400 8a40 11fc 4340 c0e8 8540
000001a0: a670 8240 5c6e cf40 76c9 3940 5525 5740
000001b0: c463 b440 754d 8a40 8180 5040 d7c7 3e40
000001c0: 239d 6b40 6cee 6740 4922 7640 3e8d 1340
000001d0: 2e7a 8a40 8b56 7140 b615 7e40 625c 7340
000001e0: 190d 8a40 1bb7 d640 beec 8140 2fbc 1741
000001f0: 5c30 3c40 d853 2240 830d 1940 cc39 5f40
00000200: 3969 c740 667e a440 356a e740 25c3 1840
00000210: 5026 df40 38c0 4740 cefb b340 9717 8c40
00000220: 86d9 9140 3392 8d40 c351 9040 2ce4 ad40
00000230: 9cfd 8940 1b26 d040 c587 8940 8586 5341
00000240: 7af2 9040 35d6 e940 9a83 ba40 b69b 8740
00000250: 70be 4340 075d 3940 e2f4 9440 c140 7740
00000260: fa4d 7d40 3d2d f240 df8c 5240 bcf4 6e40
00000270: 7691 9440 a4bd a740 b23b a040 1fd0 9140
00000280: 1662 4940 e27e ad40 36a0 8041 88c0 a440
00000290: 9faf 6a40 6a0e 7940 40ec 7440 a185 e740
000002a0: 2410 fa40 4de6 a540 d5c8 d43f fa7a fb40
000002b0: b7bd a640 87c0 7d40 8059 9940 23cd a340
000002c0: 2071 3f40 a0ff 6140 ec92 4041 78b1 c440
000002d0: 2556 1e41 56af 5d40 d55b 2e40 28c1 9340
000002e0: 1a57 d040 6991 6f40 9235 0541 de43 9540
000002f0: f0e5 4940 0348 d840 e9b3 f13f 612b 4d40
00000300: 36fa 2940 94fd b740 9948 6140 93cd 4540
00000310: 8eab 4840 cfd8 d440 a8ef 0340 e216 2241
00000320: 4552 4840 7364 4940 d7c5 c640 bc33 6040
00000330: 7101 2740 d6cb 9d40 2dbc d93e 46be 4d41
00000340: ffaf 3c40 e3e7 3540 781b 2540 ca65 2c40
00000350: f876 3b40 f552 9c40 52c7 7540 bea4 0341
00000360: 5703 0041 d08e 8540 57bf ce40 3569 a440
00000370: 9df1 8c41 21ba dc40 d365 4d40 4635 a740
00000380: e6d5 f140 eab6 ae40 ab4e 8a40 7454 bf40
00000390: 821b 6040 66e6 9740 7990 9240 20c6 a340
000003a0: 20bb 6c40 f9e9 1c41 02ff 5140 c250 b240
000003b0: e4ac d240 d645 6440 e9e6 3440 d615 9d40
000003c0: f2d2 8a40 b9d1 9240 90ee 4940 7ca5 8c40
000003d0: ad53 b540 736d c440 645d f640 7bc2 3540
000003e0: 0d88 9c40 3c65 9440 f0bf bd41 3c97 9940
000003f0: 37fb 1541 c6f1 9040 1d9c 1f41 6ed5 8540

fc2.weight f4 [300, 404]
-0.015034103 0.01158519 -0.044394955 0.020136766 -0.014359166 -0.048330884 -0.0030604317 0.030708537
0.012899575 -0.016095184 -0.024588574 -0.031596307 -0.026150387 -0.045914423 0.010999646 0.010781785
-0.023336688 0.0067231664 0.025779407 -0.06714895 0.0006229688 0.0107873995 -0.04732316 -0.025659677
0.05071513 -0.006577717 -0.06754116 -0.04481338 0.024795718 -0.019203069 -0.005745117 0.00076949183
0.013914869 -0.064015016 -0.03617064 0.012281075 -0.07790196 -0.04047565 -0.05672753 -0.10432035
0.018442564 -0.050382312 -0.07310413 -0.0106163295 -0.017667064 0.04537189 -0.025269719 -0.049359612
0.0034286284 -0.076792896 0.055270668 0.0021888393 -0.09281411 -0.062422473 0.012781187 -0.01820782
-0.09978264 -0.0013613644 -0.047073334 -0.05036663 -0.041922368 0.00876466 -0.020015579 0.03575406
-0.027965913 -0.032291315 0.0483163 -0.040994473 -0.033798732 -0.05060181 0.01592051 0.0020013002
-0.020471955 -0.051141553 -0.082303025 -0.05532052 0.026652822 -0.01198135 -0.059530873 0.028649649
-0.039644204 0.00079143216 0.022411346 -0.004660558 -0.054892886 -0.0043537673 -0.06670163 -0.0031689603
-0.0003453991 -0.014744713 0.005859935 -0.027858818 -0.04530769 -0.036043417 0.025401725 -0.035866622
0.023596225 -0.06944828 -0.058352 0.026213545 -0.06743807 0.0045525897 0.03848218 0.014539075
-0.079182744 -0.07331454 -0.012710868 0.014249648 0.0029614554 0.0060884464 -0.084660485 -0.06563557
-0.0010955173 -0.037350923 0.013458264 0.0100604305 -0.067692414 -0.04057385 -0.044469897 -0.0064895162
-0.0024808669 -0.04759264 -0.06005939 -0.06118179 -0.038824443 0.0018748099 0.021262038 0.012941431
-0.008154835 0.02462991 -0.018437924 -0.072908945 0.025726106 -0.06978203 -0.018796973 -0.00067494105
-0.05482136 -0.060347103 -0.07026301 0.013509817 -0.074220404 -0.03375959 0.006224604 -0.06752257
-0.057560585 -0.039210115 -0.05974756 0.021147164 -0.0067259218 -0.07800487 -0.00855324 -0.009164205
0.029165579 -0.05572154 0.013370168 -0.016286384 -0.032508567 -0.065816835 -0.0023067624 -0.014945992
0.022035314 0.012170255 0.011142463 -0.03925499 -0.011133834 -0.037864555 0.008022123 -0.0344984
-0.035629805 -0.015219692 -0.019412255 -0.00080305914 -0.0681388 -0.060667343 -0.008646414 -0.022422122
0.00031127606 -0.051060826 0.038339823 -0.06560599 0.013881827 -0.109830424 -0.021984216 0.013251303
0.020985767 -0.02175175 -0.049146567 -0.08364391 -0.010272184 0.02164054 -0.04031447 0.011389345
0.0040102233 0.004342673 0.013186206 0.0046598976 -0.08866032 -0.000362879 -0.035674613 -0.014217681
0.0026392394 -0.0076445974 -0.08215458 -0.027540384 0.011593756 -0.009342359 -0.010029408 -0.023982126
-0.022527518 -0.010815815 0.04187636 0.029332962 -0.019332824 0.008748426 0.017390767 0.011218742
-0.057887383 -0.07131928 0.007823984 0.022837544 0.011619091 -0.03248932 -0.054841567 0.009646816
-0.05653152 0.030820299 0.02623755 0.043581873 0.013651294 -0.02507582 -0.05394074 0.0044094888
0.022337476 -0.046456236 -0.0044472897 -0.0897094 0.0031821737 0.012038038 0.011074978 -0.06788468
0.052276563 -0.026492426 -0.014888354 0.017013852 -0.0797342 -0.066369385 -0.007402451 -0.05337731
0.015358053 -0.07190528 0.0056056557 -0.032777328 0.0028700798 6.6707915e-05 -0.026003271 0.011734745
00000000: 9951 76bc cfcf 3d3c 7cd7 35bd dcf5 a43c
00000010: b542 6bbc 9bf6 45bd 8691 48bb 7890 fb3c
00000020: bd58 533c 0cda 83bc fa6d c9bc 216b 01bd
00000030: 5639 d6bc c310 3cbd dc37 343c 15a6 303c
00000040: 952c bfbc 024e dc3b 562f d33c 6485 89bd
00000050: ba4e 233a a2bd 303c eed5 41bd 3e34 d2bc
00000060: abba 4f3d e489 d7bb 0553 8abd 3c8e 37bd
00000070: 6420 cb3c c14f 9dbc 8941 bcbb b9b7 493a
00000080: 31fb 633c 4e1a 83bd aa27 14bd 9036 493c
00000090: 108b 9fbd ccc9 25bd 205b 68bd e8a5 d5bd
000000a0: dc14 973c af5d 4ebd 9eb7 95bd 1df0 2dbc
000000b0: 85ba 90bc e0d7 393d 7102 cfbc 4e2d 4abd
000000c0: d7b2 603b 9845 9dbd 7f63 623d a172 0f3b
000000d0: 5315 bebd b5ae 7fbd 2f68 513c 9128 95bc
000000e0: d75a ccbd cf6f b2ba f8cf 40bd 3d4d 4ebd
000000f0: cab6 2bbd a699 0f3c b6f7 a3bc d972 123d
00000100: c518 e5bc e643 04bd 50e7 453d d2e9 27bd
00000110: 8a70 0abd d843 4fbd bb6b 823c 3f28 033b
00000120: cdb4 a7bc ce79 51bd 7d8e a8bd c597 62bd
00000130: 0557 da3c 6d4d 44bc a5d6 73bd abb2 ea3c
00000140: f661 22bd 1d78 4f3a 0098 b73c 98b7 98bb
00000150: 5dd7 60bd 0caa 8ebb dd9a 88bd 55ae 4fbb
00000160: af16 b5b9 cf93 71bc b304 c03b 2d38 e4bc
00000170: 8e94 39bd 43a2 13bd 4717 d03c e1e8 12bd
00000180: df4c c13c e63a 8ebd 8202 6fbd cabd d63c
00000190: f91c 8abd e42d 953b 7e9f 1d3d 4d35 6e3c
000001a0: 902a a2bd ef25 96bd 3f41 50bc 5b77 693c
000001b0: fa14 423b 9781 c73b 7a62 adbd f16b 86bd
000001c0: 7697 8fba 48fd 18bd 0d80 5c3c 81d4 243c
000001d0: 52a2 8abd c430 26bd 1126 36bd 02a6 d4bb
000001e0: 0a96 22bb 80f0 42bd d600 76bd c299 7abd
000001f0: 6106 1fbd 2ebc f53a ba2d ae3c 4c08 543c
00000200: db9b 05bc aac4 c93c 210b 97bc 4951 95bd
00000210: 8ebf d23c e2e9 8ebd 1cfc 99bc 87ee 30ba
00000220: 5d8c 60bd 862e 77bd 0ee6 8fbd 4858 5d3c
00000230: de00 98bd 7f47 0abd c3f7 cb3b 4649 8abd
00000240: a6c4 6bbd c99a 20bd dcb9 74bd d13c ad3c
00000250: 1f65 dcbb 04c1 9fbd e422 0cbc 7625 16bc
00000260: a7ec ee3c 453c 64bd 8d0e 5b3c 066b 85bc
00000270: b427 05bd faca 86bd 0d2d 17bb 09e0 74bc
00000280: 6783 b43c c065 473c e18e 363c d7c9 20bd
00000290: af6a 36bc dd17 1bbd 396f 033c 324e 0dbd
000002a0: 8ff0 11bd 045c 79bc 7306 9fbc 6384 52ba
000002b0: 5b8c 8bbd 527e 78bd b0a9 0dbc 99ae b7bc
000002c0: c432 a339 2825 51bd 380a 1d3d 6f5c 86bd
000002d0: 9a70 633c c6ee e0bd 3e18 b4bc fe1b 593c
000002e0: 58ea ab3c ba30 b2bc e94d 49bd 804d abbd
000002f0: aa4c 28bc 8047 b13c c920 25bd 609a 3a3c
00000300: 3168 833b fb4c 8e3b f50a 583c 0eb2 983b
00000310: 8b93 b5bd cb40 beb9 8b1f 12bd 47f1 68bc
00000320: 17f7 2c3b 887f fabb a940 a8bd 5f9c e1bc
00000330: bdf3 3d3c b210 19bc 6352 24bc 2a76 c4bc
00000340: a18b b8bc d134 31bc 8c86 2b3d ae4b f03c
00000350: df5f 9ebc 8f55 0f3c 1577 8e3c d0ce 373c
00000360: 521b 6dbd d80f 92bd 2b30 003c cd15 bb3c
00000370: 005e 3e3c 8513 05bd 8da1 60bd ae0d 1e3c
00000380: 988d 67bd da7a fc3c 21f0 d63c e882 323d
00000390: ada9 5f3c ce6b cdbc f7f0 5cbd 797d 903b
000003a0: 15fd b63c e548 3ebd 92ba 91bb 90b9 b7bd
000003b0: 048c 503b 313b 453c d373 353c 2007 8bbd
000003c0: f31f 563d a506 d9bc 48ee 73bc a260 8b3c
000003d0: af4b a3bd acec 87bd 4290 f2bb 2ba2 5abd
000003e0: 58a0 7b3c 1343 93bd a6af b73b 8541 06bd
000003f0: f317 3c3b 8ae5 8b38 d004 d5bc 1743 403c

fc2.bias f4 [300]
-0.08190823 -0.12272332 0.31021926 0.012676772 0.08628034 0.12324823 -0.12758327 -0.10638178
-0.24753666 0.3130387 0.38461426 -0.02592842 -0.2237509 -0.14585434 -0.007846454 -0.085893475
-0.13787833 0.44111338 0.048246793 -0.18742801 -0.07889986 0.2255213 -0.02774041 0.469228
-0.10511892 0.15613656 -0.07011996 -0.2760516 0.14187413 -0.33510688 -0.19556935 0.14006896
-0.09367876 0.5999543 -0.0862605 -0.021045968 -0.48804688 0.030350965 -0.04488821 -0.09495267
-0.055725373 -0.19169411 -0.20508179 -0.07310839 0.01591126 -0.069085695 0.17500491 -0.21725902
-0.16754949 -0.0434928 -0.088992506 -0.1769299 0.061211456 -0.070307426 -0.10127661 -0.029199932
0.27701324 -0.2162687 0.09890202 -0.18357788 -0.09938214 0.08873061 0.22772217 -0.07128229
-0.07978385 0.23082045 -0.0056052515 0.5347829 -0.046984207 0.31781438 -0.005796407 -0.30416802
0.12726007 -0.28963205 -0.08709349 0.1008201 -0.21887614 -0.24529435 -0.10093442 0.6368372
0.0757673 -0.08292156 0.024552647 0.16835862 -0.28590763 0.17335361 -0.28621423 -0.08695899
-0.0006259213 0.18285677 -0.26068226 -0.06305239 -0.07203197 -0.114963464 -0.030021172 -0.06690417
-0.03693842 -0.012441971 -0.06418651 -0.22610329 0.0051320135 0.18089992 -0.03939007 -0.30214196
-0.32391605 -0.09901388 -0.06333232 -0.15900779 0.24143735 0.11109802 -0.03985403 -0.09474636
0.5016289 -0.23232494 0.14202815 -0.014935751 -0.38204676 -0.24998014 0.09582971 -0.21429724
0.21817611 -0.08468346 0.05652869 -0.19571814 -0.25466728 -0.10786348 -0.102438055 -0.16511256
-0.118752964 0.20089328 -0.06330722 0.42796534 -0.07543367 0.29278183 -0.16035566 -0.29875037
0.08099138 -0.067813836 -0.20942052 0.1372994 -0.22106344 -0.15219986 -0.052282896 -0.1411226
0.047192086 -0.15240625 -0.2255112 0.04744035 0.19235982 0.0043597887 0.040331017 0.16468611
0.0676417 -0.060675725 -0.34078822 -0.03856299 -0.079812385 0.15856373 -0.07890749 0.3388698
-0.09947489 -0.29678303 0.35550573 0.13707235 -0.053158533 0.208067 -0.0704982 0.3848475
0.18117158 0.27308658 -0.21930382 -0.35293433 0.14611585 -0.03620292 -0.07767017 -0.06215961
-0.29865336 -0.092314616 -0.2747018 -0.13904646 -0.0714809 -0.009970387 0.08267368 0.079855666
-0.1806817 -0.11878314 0.103568956 0.29698318 -0.07363795 -0.026796682 -0.23452982 0.2205983
-0.37045816 -0.16510323 0.45612937 -0.329846 -0.218702 -0.009364665 0.19582844 -0.38137972
-0.38631245 -0.063629575 0.1354741 -0.18243782 -0.18807326 -0.083030276 -0.1888208 -0.2920182
-0.10691027 0.5465315 1.933798e-05 0.09218649 -0.07895041 -0.019882685 -0.17107281 0.51364607
-0.06981894 -0.04404558 0.40341112 0.18095933 0.047454797 -0.00928786 -0.048396144 -0.07464428
-0.2976115 0.1752395 0.42421487 -0.40709925 -0.23217103 0.6622301 -0.14141953 -0.097001225
-0.030908974 0.19683634 -0.23904277 -0.10068022 -0.17917316 -0.27959192 -0.16995496 0.31842086
-0.006266027 -0.12380864 -0.30972546 -0.09969915 -0.2633107 0.15070888 -0.08166135 0.026266882
-0.13335533 0.4977623 -0.089610204 0.12162821 -0.2082258 -0.037060235 -0.24392422 -0.20269616
00000000: 81bf a7bd 5d56 fbbd 0fd5 9e3e 3cb2 4f3c
00000010: bfb3 b03d 9169 fc3d 30a5 02be b1de d9bd
00000020: 407a 7dbe 9c46 a03e 29ec c43e d667 d4bc
00000030: f51e 65be d75a 15be 6a8e 00bc ebe8 afbd
00000040: fa2f 0dbe 9dd9 e13e 6e9e 453d 21ed 3fbe
00000050: 4096 a1bd 0eef 663e db3f e3bc a73e f03e
00000060: 9748 d7bd 43e2 1f3e 0e9b 8fbd a356 8dbe
00000070: 7447 113e 2193 abbe 5543 48be 3d6e 0f3e
00000080: a6da bfbd 9b96 193f 58a9 b0bd 9868 acbc
00000090: 48e1 f9be 96a2 f83c b3dc 37bd 8c76 c2bd
000000a0: 4a40 64bd 764b 44be f600 52be dab9 95bd
000000b0: 5558 823c cd7c 8dbd 7d34 333e 2679 5ebe
000000c0: 1892 2bbe 8225 32bd b441 b6bd 1d2d 35be
000000d0: ddb8 7a3d 57fd 8fbd 1c6a cfbd b234 efbc
000000e0: aed4 8d3e 8b75 5dbe 248d ca3d d7fb 3bbe
000000f0: dd88 cbbd 65b8 b53d 0030 693e 73fc 91bd
00000100: b765 a3bd 325c 6c3e 42ac b7bb 88e7 083f
00000110: 8372 40bd 91b8 a23e c9ef bdbb e9bb 9bbe
00000120: 7750 023e a74a 94be 125e b2bd c57a ce3d
00000130: 1121 60be 712e 7bbe b5b6 cebd c307 233f
00000140: e32b 9b3d c7d2 a9bd a222 c93c 3466 2c3e
00000150: 7c62 92be 9c83 313e ac8a 92be 8e17 b2bd
00000160: de14 24ba ce3e 3b3e 2578 85be 9d21 81bd
00000170: 7f85 93bd f771 ebbd f6ee f5bc 0e05 89bd
00000180: be4c 17bd 69d9 4bbc 3874 83bd 9f87 67be
00000190: 732a a83b d43d 393e 7b57 21bd 5ab2 9abe
000001a0: 53d8 a5be cac7 cabd 60b4 81bd f0d2 22be
000001b0: 5a3b 773e 5c87 e33d fb3d 23bd 610a c2bd
000001c0: c06a 003f 97e6 6dbe d46f 113e 15b5 74bc
000001d0: a29b c3be cbfa 7fbe 5e42 c43d bc70 5bbe
000001e0: 8f69 5f3e 866e adbd a18a 673d 566a 48be
000001f0: c063 82be 87e7 dcbd 0bcb d1bd 4413 29be
00000200: c134 f3bd f8b6 4d3e 37a7 81bd 461e db3e
00000210: f87c 9abd 80e7 953e 4634 24be cff5 98be
00000220: cfde a53d fbe1 8abd 5572 56be 3798 0c3e
00000230: 745e 62be 48da 1bbe 9726 56bd 7182 10be
00000240: 7d4c 413d 6210 1cbe 68ec 66be d050 423d
00000250: f9f9 443e 8fdc 8e3b 2332 253d 7aa3 283e
00000260: bb87 8a3d 1c87 78bd cb7b aebe 3af4 1dbd
00000270: ad74 a3bd 885e 223e 409a a1bd 5880 ad3e
00000280: 7eb9 cbbd f2f3 97be d904 b63e b25c 0c3e
00000290: c3bc 59bd 840f 553e 5c61 90bd bb0a c53e
000002a0: 0b85 393e 01d2 8b3e 2e91 60be cfb3 b4be
000002b0: 659f 153e 8349 14bd 8a11 9fbd 139b 7ebd
000002c0: 18e9 98be 720f bdbd b7a5 8cbe 3262 0ebe
000002d0: 9464 92bd d65a 23bc d150 a93d 5e8b a33d
000002e0: a004 39be 9344 f3bd f61b d43d 2e0e 983e
000002f0: 7ecf 96bd b784 dbbc 9628 70be 85e4 613e
00000300: b1ac bdbe d210 29be ca89 e93e 93e1 a8be
00000310: 6bf3 5fbe 406e 19bc 4087 483e 3444 c3be
00000320: bfca c5be 3950 82bd b9b9 0a3e fbd0 3abe
00000330: 4796 40be c70b aabd 3d5a 41be 6983 95be
00000340: c6f3 dabd 7de9 0b3f ff37 a237 45cc bc3d
00000350: c1b0 a1bd 03e1 a2bc b62d 2fbe 4f7e 033f
00000360: 3bfd 8ebd 2369 34bd e78b ce3e 674d 393e
00000370: f65f 423d 1c2c 18bc 093b 46bd 1adf 98bd
00000380: 8960 98be fc71 333e b132 d93e 506f d0be
00000390: 3ebe 6dbe e987 293f 48d0 10be 94a8 c6bd
000003a0: d134 fdbc 778f 493e a1c7 74be 6e31 cebd
000003b0: 2b79 37be ac26 8fbe ac08 2ebe 0f08 a33e
000003c0: 3f53 cdbb 628f fdbd 5694 9ebe 112f ccbd
000003d0: a9d0 86be 6e53 1a3e 113e a7bd a52d d73c
000003e0: 4d8e 08be b3da fe3e 8e85 b7bd 3618 f93d
000003f0: 2539 55be 79cc 17bd 45c7 79be 958f 4fbe
