Reacher-Continuous-Control/checkpoints/checkpoint_actor.pth (torch_old, 548258 bytes, 10 tensors)

fc1.weight f4 [400, 33]
000000 cb 4d 05 3d 14 75 e4 3e 29 ce 3c be 5a 5f 04 be
       0.032544892 0.44620574 -0.18438019 -0.12926999
000010 93 0a 79 3e 0e 45 f6 3e b3 7d 67 3f de d6 be be
       0.2432044 0.4809956 0.90426177 -0.37273306
000020 3c 35 05 bd 96 9b f5 3e a7 f7 30 3f dc 32 15 be
       -0.03252147 0.47970265 0.6912789 -0.14570183
000030 d1 e5 15 3d ef 83 df bd 1a 4f 1e 3e 19 cd ca 3e
       0.036596123 -0.10913836 0.15459862 0.39609602
000040 ee c1 58 bf a9 53 a1 be 6b f1 57 bf a3 98 9d bf
       -0.84670913 -0.3150914 -0.8435275 -1.2312206
000050 ad ea 95 3d 00 94 0b be 44 f1 9c be 68 62 41 be
       0.073201515 -0.13630676 -0.3065282 -0.18885195
000060 7b c1 0b bd 94 39 6f 3d c1 f4 6e 3e ec 8f 42 3d
       -0.034120064 0.05840452 0.23335554 0.047500536
000070 9d 91 81 be c9 a1 0e 3d 5a 2e 99 bc 60 5a 68 3b
       -0.25306407 0.03482226 -0.01869886 0.0035454258
000080 24 6a df bd ce 72 f1 3c 5b 5e e4 bd 18 e9 a8 be
       -0.109089166 0.029473688 -0.111508094 -0.32990336
000090 72 1b b9 be ad 47 b8 be b6 42 e6 bf ab 3e 13 3f
       -0.36153752 -0.35992184 -1.7989109 0.575175
0000a0 00 59 25 3e 5b 5e 4b bf c5 92 a0 be c6 bb 91 3c
       0.16147232 -0.7944085 -0.31361976 0.017789733
0000b0 53 d9 e8 3d 7d a1 84 3c 4a 31 17 be 08 51 c5 be
       0.11369576 0.016190285 -0.14764896 -0.38538384
0000c0 56 8d af 3e 6f fc 28 be 9e f2 02 3f ae 73 e6 3f
       0.34287518 -0.16502546 0.51151454 1.8004053
0000d0 24 70 c8 3e 0d ea 42 be b5 30 df 3d f1 6c aa 3e
       0.39148057 -0.19034596 0.10897962 0.3328624
0000e0 a5 2e 05 3e 83 c0 87 3e f4 c8 4d 3e 17 66 16 3e
       0.13006075 0.26514062 0.20096189 0.14687382
0000f0 c3 a8 f4 bb db c0 8e be b0 50 8d 3b 85 b7 12 bd
       -0.007466407 -0.27881512 0.004312597 -0.03581955
000100 60 28 60 bb 4a 4b e5 3d e4 52 23 be 65 22 67 3f
       -0.0034203753 0.11196001 -0.15949589 0.90286857
000110 c7 91 d4 be 08 e6 fe 3e 06 82 6b bf 85 8b 1c 3f
       -0.4151747 0.49784875 -0.91995275 0.6115039
000120 b9 10 70 bf 06 bd c9 bd 95 0c 6a 3e f6 f8 7b bd
       -0.93775517 -0.098505065 0.22856362 -0.061516725
000130 7c 51 c4 3e f8 7a ae bd 44 c5 8b be d7 00 58 be
       0.38343418 -0.08519548 -0.2729894 -0.2109407
000140 0f 94 82 be e0 95 92 be 2c 60 30 bf 46 55 78 be
       -0.25503585 -0.2862997 -0.68896747 -0.24251279
000150 c1 2a 18 3e 0b 4c 45 bd 85 46 a8 bd cd 58 5c 3e
       0.1486006 -0.048168223 -0.082165755 0.2151825
000160 94 fc 7f 3d 3e 6f 53 be d5 15 ad bd 8e 6c 54 3d
       0.062496737 -0.20647904 -0.0845143 0.05186134
000170 58 14 02 3e cd 64 2d 3c 97 3e c7 3e ba d9 9e 3c
       0.12703073 0.010583115 0.3891494 0.01939093
000180 1a f8 bd 3c 52 0d 90 3c 73 cc 7e 3f ef bc cf 3e
       0.023189593 0.017584477 0.99530715 0.40573832
000190 a9 17 aa 3e a5 6e 16 3f 46 01 6e bf 94 5d 0a bf
       0.33221176 0.5876258 -0.92970693 -0.5404904
0001a0 9a 7a e1 bd aa 5e d3 bd da e1 9e 3d 90 8c bb 3e
       -0.110097125 -0.1032079 0.077579215 0.36630678
0001b0 3f 68 0f be 99 f6 38 bd 8a 30 bc 3d 6b 53 31 ba
       -0.1400461 -0.04515705 0.091889456 -0.00067644444
0001c0 91 01 9f bd e1 9e f2 bd a7 64 e1 be ba b8 ba 3f
       -0.07763971 -0.1184671 -0.44022104 1.4587624
0001d0 05 a0 b4 be ed 2d 0e 3f e3 65 7d 3f 52 3e 63 3d
       -0.35278335 0.5553883 0.9898359 0.055479355
0001e0 8b 75 6c 3d 2c 4c 27 3e 89 0c 69 3e 91 0b b0 bd
       0.057729285 0.16337651 0.22758688 -0.08595956
0001f0 1c 04 07 be 4f bd 20 3d 8c e0 48 3d 3a 6f 18 be
       -0.13185161 0.03924304 0.04904227 -0.1488618
000200 2d 9b 2a bd 8a 8f 2a bd 07 e2 47 3d b5 2d 91 bf
       -0.041651893 -0.041640796 0.04879954 -1.1342074
000210 17 36 b8 be ad 73 fe 3e f2 39 05 3c a3 14 04 bf
       -0.35978767 0.4969763 0.008131491 -0.5159399
000220 7b 0c 32 3e 4b 70 fa 3e eb 69 d7 be 89 9d 33 bf
       0.17387573 0.48913798 -0.42072996 -0.70162255
000230 7f 66 2d 3e c7 4c ea bd 7e 88 31 3c d5 9e 02 3d
       0.1693363 -0.11440425 0.010835765 0.031889755
000240 bc 43 d1 3d e2 3c 29 3b c1 d7 9b be 0e ac c8 3c
       0.102179974 0.0025823642 -0.30438045 0.024496105
000250 a0 f7 9a bf 50 c8 1c be 9b f0 17 3d 23 5d f4 be
       -1.2106819 -0.15310788 0.037094694 -0.47727308
000260 8b bd 20 be 99 f7 9a bd 85 c3 68 be 79 fc b2 be
       -0.15697305 -0.07566757 -0.22730835 -0.34958246
000270 d0 f6 8e be d8 8e 47 be 3f 7a e3 3e ae a6 31 3d
       -0.27922678 -0.19488084 0.44429204 0.04337185
000280 3b db b1 3d 6c d8 6e bc a3 02 28 3c d5 0f 15 3d
       0.08684393 -0.014577966 0.010254535 0.03639205
000290 0a 13 a7 bf f1 f2 8e 3e c6 f3 86 3d b9 8e d3 3e
       -1.3052685 0.27919725 0.06589465 0.41319826
0002a0 ed 57 a0 be f2 1c 0d be 2c 31 27 3f fb 1f 3c 3f
       -0.31317082 -0.13780573 0.65309405 0.734863
0002b0 f6 2c 81 be b7 6f 3f bb 8e c2 e3 3d 6a 91 50 3d
       -0.25229615 -0.0029210874 0.11121093 0.050919928
0002c0 31 72 34 bd 14 22 6a be 68 40 73 be c9 80 2a be
       -0.044054214 -0.22864562 -0.23755038 -0.1665069
0002d0 98 59 d2 be d6 cf ed 3e ca 97 91 bf a9 05 28 be
       -0.4108398 0.4644763 -1.1374447 -0.16408409
0002e0 d5 c4 15 bf 40 c0 dd bd 8d 51 87 be 4a 26 f1 be
       -0.58503467 -0.108276844 -0.26429406 -0.47099525
0002f0 9f a7 18 be e8 41 3c bd 3e 9c 80 be d1 7b 05 3f
       -0.14907692 -0.04596129 -0.25119203 0.52142054
000300 63 7f 3b bd db 29 89 bc 10 05 c3 bb b1 ec 29 3d
       -0.045775782 -0.016743591 -0.005951531 0.041485492
000310 38 66 13 bd 57 6c 6d 3f a1 fa 61 3c 2f ca 29 bc
       -0.035986155 0.9274344 0.013792665 -0.010363146
000320 e6 80 81 3c 08 f3 21 bd f2 69 00 bd 7d 28 05 3d
       0.015808534 -0.039538413 -0.031351037 0.032509316
000330 6b 79 c2 3c a4 1c 8c 3c ff 7e cd 3b 62 31 47 3c
       0.023739537 0.0171035 0.0062712426 0.01215777
000340 3b 8e 41 bc 27 ff 09 3d e7 8d 2e bc 83 de c4 ba
       -0.011813696 0.033690598 -0.010653949 -0.0015019927
000350 68 1d 05 bc db ff 8a 3a 0f 83 4d bb 45 d3 4a 3d
       -0.008124687 0.0010604815 -0.0031358635 0.04951789
000360 6f 07 35 bd 88 ab f7 bc 8e c3 18 bb 99 73 3c 3d
       -0.044196542 -0.03023316 -0.002330992 0.04600868
000370 49 0b f9 bc 87 68 4b 3d 28 66 36 3d 55 c0 d1 bb
       -0.030400889 0.049660232 0.044531018 -0.0064011016
000380 fa ba 0d bd ca db ca bc ea 23 0e bd 3f d3 06 3d
       -0.034602143 -0.024763007 -0.03470222 0.032916304
000390 b4 c1 2d bc 30 d3 eb bb c9 0a 62 bc a9 8c 2f be
       -0.010605264 -0.0071968064 -0.013796517 -0.17143501
0003a0 c5 3f 5c 3f b4 ce f2 3e e1 c6 7d bd 92 3a 05 3f
       0.86034805 0.47423327 -0.061957244 0.52042496
0003b0 33 9e f0 bf 77 07 bc 3e 2e d1 f4 bd 05 19 d2 3d
       -1.8798279 0.36724445 -0.1195396 0.10258678
0003c0 9f d4 54 3e cb 1a 45 3c 79 b7 93 bd 96 6f 36 be
       0.20784234 0.012030314 -0.07212729 -0.17816004
0003d0 d0 18 03 3e 78 ea 96 be b5 25 ec be 4f c3 0d 3f
       0.12802434 -0.2947576 -0.46122518 0.5537614
0003e0 b3 bc 9f be 8a 95 c9 3e 83 56 73 3f 71 12 b6 bd
       -0.31198654 0.39371902 0.9505388 -0.08890236
0003f0 0c 6c 82 bd 31 4e 12 3e f3 fb 0f 3e 76 84 06 3d
       -0.063682646 0.1428764 0.14060955 0.03284117

fc1.bias f4 [400]
000000 ff ae 87 bb 1e cc 1c be d1 5c 75 ba 37 8d 01 bd
       -0.004140734 -0.1531224 -0.0009359839 -0.031628814
000010 1b 85 0e 3e 50 4d f1 bd 68 7a e3 3c 3e 6f 15 be
       0.13917963 -0.11782324 0.027768329 -0.14593217
000020 b2 97 ff 3b c6 8f f4 3c b9 57 b3 bd 92 7e 82 bc
       0.007800066 0.029853713 -0.08756966 -0.015929494
000030 af d3 c4 3d 9a 81 fd bd a4 1e ef bd 05 03 ba 3d
       0.09610688 -0.12378235 -0.11675766 0.09082607
000040 6b 61 e1 3d 03 89 29 be 9c d9 16 3d c8 9d 19 be
       0.11004909 -0.16556172 0.036828622 -0.15001595
000050 b3 a0 ee 3d 36 9d d5 3d 5f a4 c5 bd 04 06 1a 3d
       0.11651745 0.10430376 -0.09650492 0.037603393
000060 25 64 92 3d a5 4a 1d be 5c 29 ab 3d 65 ee 35 3c
       0.07148007 -0.15360506 0.08357498 0.011104201
000070 77 cc e0 3d dd 7a a7 3c ce 90 c0 3c 0b fc 61 bc
       0.109764986 0.020444328 0.023506548 -0.013793002
000080 e7 bc 0c 3e d4 79 19 be 4d 1b 80 bd 95 ed 80 bd
       0.13743936 -0.1498788 -0.06255207 -0.06295315
000090 7b 22 22 3e 62 d3 61 3a a9 3c 04 be 78 30 bc 3d
       0.15833466 0.00086145673 -0.12913765 0.09188932
0000a0 de 88 f0 bc c9 f1 eb bd 6c d3 ea ba 3d 0f 2f bd
       -0.029362138 -0.11520726 -0.0017915792 -0.04273914
0000b0 a9 0a 15 be 9e 93 24 3e bc 05 f3 bd 88 e1 9e 3d
       -0.14554848 0.16071936 -0.11866328 0.077578604
0000c0 50 f2 d4 bd d1 78 7a bc 64 66 1c 3e 04 8b 28 3e
       -0.1039778 -0.015287594 0.15273434 0.1645928
0000d0 e0 3d c7 bd c9 5b 02 be 6c c2 21 be 50 1b 8d bd
       -0.097285986 -0.12730326 -0.15796822 -0.06889975
0000e0 c0 3b 5e bd 0a 9e dd bc 92 73 ea 3b b4 c8 0c 3e
       -0.0542562 -0.027052898 0.0071548903 0.13748437
0000f0 5c 51 23 3e d1 81 23 3e dd f2 30 3e e1 8f c6 3d
       0.15949005 0.1596749 0.17280145 0.096954115
000100 8a d4 dd bd ab f6 82 3c a8 73 4a 3d 16 58 e4 bc
       -0.10831554 0.015986761 0.049426705 -0.027874034
000110 19 8d 27 be d2 cf 0d bd 3a c9 26 be 58 6d 29 be
       -0.16362418 -0.03462202 -0.162877 -0.16545618
000120 d0 9b 09 be fb 25 08 bd 58 bc b3 bc 14 de 2a 3e
       -0.13438344 -0.033239346 -0.021940395 0.16686279
000130 c1 eb 7f 3d d7 65 2a bd 07 fe 13 be 5f cc fc bd
       0.06248069 -0.04160103 -0.14452372 -0.12343668
000140 3a ef 24 be 1d e3 a0 3c 20 65 a2 bd 83 f5 36 3d
       -0.16106883 0.019639546 -0.07929444 0.044667732
000150 ad d2 28 3e 90 f4 41 3d b8 04 2f be e8 3a 10 3e
       0.16486616 0.047352374 -0.17091644 0.14084971
000160 ad f7 6f 3a cc 59 db bc 1f 09 05 3d 90 b0 af 3d
       0.0009154033 -0.026776217 0.0324794 0.085785985
000170 1b 1a 65 bd ec e8 ff bd 95 aa d6 bd 50 11 07 be
       -0.0559331 -0.12495598 -0.10481755 -0.13190198
000180 00 67 bf 3b ea 80 e0 3d ee e3 b9 bd 41 4e ba bd
       0.005841136 0.109620884 -0.09076677 -0.09096957
000190 32 65 5b bc a5 34 9f 3d 41 92 0e 3e cc ea 5b 3d
       -0.013390826 0.07773713 0.13922979 0.053690717
0001a0 72 de ae bd 79 fb a0 3d e7 5e 2d bc 1b 42 03 3d
       -0.08538522 0.078604646 -0.0105817085 0.032045465
0001b0 70 f8 22 be 08 79 4a bd 1c 5e b5 3d 76 ee 4d 3d
       -0.15915084 -0.04943183 0.088558406 0.050276242
0001c0 20 64 1a be 76 68 70 3d 4b 4c 19 bb 06 72 df 3d
       -0.15077257 0.05869337 -0.0023391421 0.1091042
0001d0 c2 b4 ca 3d 4a c5 16 3e 71 8e d6 3d 95 bf 46 bd
       0.09897758 0.14723697 0.10476387 -0.04852255
0001e0 34 f3 1f be 75 df 36 3d b2 09 05 be 14 7a 08 3e
       -0.15620118 0.0446467 -0.1299198 0.13327819
0001f0 d6 2c a1 bd 59 1a 2d be da 8a 3c 3d ef 07 c3 3d
       -0.0786988 -0.16904582 0.046030857 0.095229976
000200 29 36 1e bd 98 b2 75 bd 1e 0d f1 bd b2 cd 22 be
       -0.03862587 -0.059984773 -0.1177008 -0.15898779
000210 6f 90 01 3c b1 08 30 be bd 71 2d be 71 31 b0 3c
       0.007907971 -0.17190816 -0.16937919 0.02150795
000220 ce 10 0f be c6 b2 e1 bd 6f c3 06 3d 4d 56 96 3b
       -0.13971254 -0.110204265 0.032901224 0.0045879246
000230 55 3b 00 be d6 8e ac 3d 8d a6 70 bd e8 e8 cd bd
       -0.12522633 0.08425681 -0.058752585 -0.10054189
000240 a6 c8 15 bd e3 bd ea bd c5 41 96 3d c9 99 4c bd
       -0.036568306 -0.11461999 0.07336763 -0.04995135
000250 8c ff 97 bd 02 95 7a 3d 0a b2 04 3e 1a a8 24 3e
       -0.074217886 0.06117726 0.12958542 0.1607975
000260 11 63 fc 3b b0 bf 26 3e d2 72 e8 3d e6 f3 ab bc
       0.0077022393 0.1628406 0.11350025 -0.020990323
000270 04 28 bd bd 4e c3 ab 3d 2d 7e cf bd 93 e4 83 bd
       -0.09236148 0.08386861 -0.10131488 -0.064400814
000280 a4 3f cb 3d c3 08 4a bd ff 29 c6 bc fe 1d a2 bc
       0.09924248 -0.049324762 -0.024189947 -0.019789692
000290 c9 06 d2 3d 80 6f 0b 3d 78 c4 45 bd b0 a2 25 3d
       0.102552004 0.03404188 -0.04828307 0.040438354
0002a0 7a 38 21 3d d2 f0 75 3d 39 02 a4 3d 26 86 73 3d
       0.0393605 0.060044117 0.080082364 0.059454106
0002b0 84 1e ef bd 2b 2f 25 3e 97 39 c2 bb f9 a7 70 3c
       -0.11675742 0.16131274 -0.0059272754 0.014688485
0002c0 f5 a1 25 3e 71 77 fa 3c 4d f0 d4 3d 38 28 10 be
       0.16175063 0.030574532 0.10397396 -0.14077842
0002d0 79 0a ff bd 89 25 7e bd 56 c2 0a 3d cc bc 16 be
       -0.124531694 -0.062047515 0.03387674 -0.14720458
0002e0 d2 d9 c4 bd 89 12 7f 3a f1 92 05 3e c7 b0 28 3e
       -0.096118584 0.000973024 0.13044335 0.16473685
0002f0 42 bb 1e 3e ba 34 15 be ef ae c6 3d 65 ad 2f be
       0.1550112 -0.14570895 0.09701335 -0.17155989
000300 be 5d 83 3d 4f 65 08 3e 46 71 0a be eb a6 b5 3d
       0.06414364 0.13319896 -0.13519773 0.08869728
000310 ed 90 2d 3e 24 03 e0 bc 91 55 0e be c4 08 b1 bd
       0.16949816 -0.027345248 -0.13899828 -0.0864425
000320 35 39 de bd 1c 75 07 be b1 95 a8 bd 66 3c da bd
       -0.10850755 -0.13228267 -0.08231676 -0.10656051
000330 0d 99 4d bd 30 ce 0a be d7 2f ea 3d e2 95 cb 3d
       -0.05019479 -0.13555217 0.11434906 0.09940697
000340 65 13 8a bd b3 d4 d0 3b 31 7f aa 3d ce 69 a0 3d
       -0.067419805 0.006373012 0.08325041 0.07832681
000350 81 56 74 bd b5 73 d3 bd dc 98 d7 bd 3b b8 e6 bc
       -0.05965281 -0.10324804 -0.105272025 -0.02816402
000360 f9 69 ab bd 67 b1 05 be 4c 40 19 3e 22 87 32 bc
       -0.08369822 -0.13055955 0.14965934 -0.010896476
000370 11 c3 d1 3d c6 18 86 bd e5 06 1f be ce ad 2b be
       0.10242284 -0.06547694 -0.15529974 -0.1676552
000380 9c 71 b1 3d e0 26 18 be 48 cc 09 be 8e 90 05 be
       0.086642474 -0.1485858 -0.13456833 -0.13043424
000390 b1 ad 01 be 1a be c5 3d 41 b0 6d bd a0 c5 12 be
       -0.12663914 0.096553996 -0.058029417 -0.143332
0003a0 5e 42 a9 bd 52 68 fe bd af c2 c9 3d 67 c9 1a 3e
       -0.08264612 -0.12422241 0.09851586 0.15115891
0003b0 48 aa 99 bd 6b 86 3a bc 42 ee 34 bc bd 83 af 3d
       -0.07503182 -0.011384587 -0.011043133 0.08570049
0003c0 61 a0 95 bd 22 95 09 3e 5a b5 8d 3b df 85 bd 3c
       -0.073059805 0.13435796 0.0043245973 0.023135124
0003d0 f6 2e aa bd 41 95 a5 3d 24 38 2a 3e 75 38 c7 3d
       -0.08309738 0.080851085 0.16622978 0.09727565
0003e0 f2 a3 e2 bd d2 b4 ae 3c ff 82 92 bd ae d5 03 3d
       -0.11066426 0.021326456 -0.07153892 0.032186203
0003f0 69 d5 86 3d f3 e1 fb 3d 9d a8 fe bd 76 36 9b 3c
       0.065836735 0.12298956 -0.12434504 0.018946867

bn1.weight f4 [400]
000000 36 10 90 3f d5 d9 5b 3f 9e d4 74 3f 5f c1 5a 3f
       1.1254947 0.8587926 0.9563693 0.8545131
000010 b5 af 90 3f 2e 9c 92 3f e4 6b 65 b9 2f fa 4b 3f
       1.1303622 1.1453912 -0.00021879334 0.79678625
000020 96 29 48 3f 95 f2 54 3f e0 23 6a 3f d3 29 8d 3f
       0.78188455 0.8318265 0.9146099 1.1028389
000030 09 73 45 3f 87 e0 66 3f f8 cb 81 3f 92 d0 92 3f
       0.77128655 0.9018635 1.0140371 1.1469901
000040 32 df 45 3f 99 f0 64 3f 8f bc 76 3f 57 a6 20 3b
       0.77293694 0.8942962 0.9638147 0.0024513209
000050 53 07 75 3f 43 af 75 3f 41 29 8a 3f 47 00 65 3f
       0.957143 0.95970553 1.079384 0.8945355
000060 1e 5a 89 3f d8 8c 1e 3f 2d 6e 8e 3f bc 58 b6 3f
       1.0730627 0.6193366 1.1127373 1.424583
000070 df 17 38 3f 50 c7 67 3f 1b dc 2d 3f cc 8a 75 3f
       0.71911424 0.905385 0.6791398 0.9591491
000080 dd be 7c 3f 8c a1 7d 3f 1e c9 4a 3f f3 59 68 3f
       0.98728734 0.99074626 0.7921313 0.9076225
000090 81 f0 99 3f e1 11 50 3f 40 68 47 3f de 7f 41 3f
       1.2026521 0.8127728 0.7789345 0.75585735
0000a0 1c 72 54 3f e6 f9 4c 3f fa 7e 15 3f 5d 97 86 3f
       0.8298662 0.80068815 0.58396876 1.0514942
0000b0 fe 0d 99 3f 8d 20 82 3f fe 8b 83 3f d9 1d 6f 3f
       1.1957395 1.0166184 1.0277097 0.9340492
0000c0 e6 59 5a 3f b6 82 af 3f 1b 8d 88 3f 78 54 62 3f
       0.85293424 1.3711765 1.0668062 0.8841014
0000d0 de 91 7c 3f 44 4b 2f 3f a0 53 80 3f 1c eb 49 3f
       0.98660076 0.6847422 1.002552 0.78874373
0000e0 08 c5 4f 3f 61 5a 66 3f 2e 51 8d 3f 72 b0 94 3f
       0.8116002 0.8998166 1.1040399 1.1616347
0000f0 eb 19 79 3f 79 83 74 3f f9 65 72 3f d6 59 93 3f
       0.9730517 0.9551311 0.9468685 1.1511791
000100 d2 71 80 3f fb 22 64 3f b2 38 83 3f c5 76 56 3f
       1.0034735 0.89115876 1.0251677 0.8377498
000110 ef 59 33 3f 66 74 33 3f 89 d0 35 3f dc 65 54 3f
       0.700591 0.70099485 0.71021324 0.82967925
000120 2f 28 6e 3f 2a c7 54 3f b2 f4 89 3f aa 7b 49 3f
       0.93030065 0.831164 1.07778 0.7870432
000130 48 bf 37 3f 2f 62 50 3f 2b 5c 76 3f 14 11 89 3f
       0.7177625 0.81399816 0.9623439 1.0708337
000140 8c 0c 4b 3f 57 60 67 3f a6 d8 55 3f dd 72 80 3f
       0.7931602 0.9038138 0.83533704 1.0035053
000150 a6 85 49 3f 3f d6 48 3f 28 57 89 3f 48 73 a8 3f
       0.78719556 0.78451914 1.0729723 1.3160181
000160 b4 e7 0b 3f 22 b4 16 3f e1 82 8b 3f ec e9 87 3f
       0.54650426 0.5886861 1.0899316 1.0618262
000170 51 0d 58 3f 37 b4 70 3f 84 24 24 3f 69 53 6b 3f
       0.8439532 0.94024986 0.6411822 0.9192415
000180 72 b2 61 3f ed ef 8f 3f e2 96 3d 3f a9 92 37 3f
       0.8816291 1.1245095 0.74058354 0.7170816
000190 ef 80 93 3f fa 4f 8f 3f a4 90 51 3f c8 5b 3b 3f
       1.1523722 1.1196282 0.8186133 0.7318692
0001a0 af 9d 94 3f 35 22 79 3f c8 1e 87 3f e2 be 55 3f
       1.1610621 0.9731782 1.0556269 0.8349439
0001b0 1c 9c 52 3f a4 e2 71 3f f7 96 87 3f b6 7f 61 3f
       0.82269454 0.9448645 1.0592946 0.88085496
0001c0 00 61 64 3f 65 1e 8a 3f 20 9e 2e 3f 58 b8 24 3f
       0.8921051 1.0790526 0.6821003 0.64343786
0001d0 95 d7 82 3f ae 00 7a 3f 05 98 ec 3e d6 75 67 3f
       1.022204 0.9765729 0.46209732 0.9041418
0001e0 bb c5 69 3f 34 a6 8a 3f b7 d7 1d 3f 2a 44 1a 3f
       0.9131734 1.0831971 0.6165728 0.6026026
0001f0 a1 37 6e 3f d2 0e 2d 3f 12 c6 64 3f 0a bf 42 3f
       0.9305363 0.6760074 0.8936473 0.7607275
000200 9a c8 5d 3f b4 3b 90 3f 50 40 31 3f 5a 19 7d 3f
       0.8663422 1.126822 0.6923876 0.9886681
000210 e0 c3 07 3f 50 47 81 3f 6c 82 54 3f 56 6f 5d 3f
       0.53033257 1.0099888 0.8301151 0.8649801
000220 41 7c 5a 3f 19 16 50 3f 1f 02 6f 3f 2a 18 48 3f
       0.85345846 0.8128372 0.9336261 0.7816187
000230 04 00 12 3f a9 2e 70 3f c1 49 8a 3f 11 8c 73 3f
       0.57031274 0.938212 1.0803758 0.951356
000240 91 17 5b 3f 6f f4 6b 3f 9f fa 71 3f 49 82 79 3f
       0.85582834 0.9216985 0.9452304 0.97464424
000250 26 e8 5e 3f 26 ac 64 3f 51 e6 67 3f e0 2d 56 3f
       0.8707298 0.8932518 0.9058581 0.8366375
000260 83 79 48 3f b5 b4 55 3f 2e 86 52 3f 5e 65 44 3f
       0.7831041 0.8347886 0.8223599 0.76717174
000270 72 85 8e 3f 46 c0 83 3f 89 12 59 3f 57 b7 8a 3f
       1.1134474 1.0293052 0.8479391 1.0837201
000280 2b 9f 65 3f a8 0c 43 3f 49 4f 16 3f 1a 2a 95 3f
       0.89695996 0.76191187 0.5871473 1.1653473
000290 68 3c 4c 3f 63 75 91 3f 95 bf 7c 3f 6a c2 7d 3f
       0.7977967 1.1363949 0.9872983 0.9912478
0002a0 a8 ae 8e 3f 70 ed 39 3f dc 30 1c 3f c8 50 5d 3f
       1.1147051 0.72627926 0.61012053 0.8645139
0002b0 a7 af 57 3f 4c 7f 39 3f c7 3d 52 3f 78 c0 3b 3f
       0.842524 0.72459865 0.82125515 0.7334056
0002c0 a3 cc 45 3f 6c d8 6c 3f 59 e3 49 3f 1e 34 96 3f
       0.77265376 0.92517734 0.7886253 1.1734655
0002d0 12 23 7c 3f 5c 6e 6e 3f 69 39 57 3f 6b bc 5d 3f
       0.98491013 0.93137145 0.84071976 0.8661563
0002e0 4a 40 1a 3a c8 85 5b 3f d6 5f 41 3f c2 35 62 3f
       0.00058842136 0.8575101 0.7553686 0.8836328
0002f0 52 07 74 3f 9d 3c 87 3f de fa 3b 3f 5d 21 63 3f
       0.9532367 1.0565373 0.7342967 0.88722783
000300 d8 3a 6a 3f 40 88 81 3f 08 cc 37 3f a9 d4 54 3f
       0.9149604 1.0119705 0.717957 0.83136994
000310 e7 53 8c 3f 75 53 8d 3f 30 4a 8c 3f b2 e5 91 3f
       1.0963105 1.1041094 1.096014 1.1398222
000320 49 46 7b 3f 95 53 52 3f cd 60 46 3f 4c aa 4e 3f
       0.9815412 0.82158786 0.77491456 0.807286
000330 c9 97 4c 3f 8d 11 83 3f 1e fa 17 3f 80 c8 8b 3f
       0.79919106 1.0239731 0.59366024 1.0920563
000340 fc 7b 54 3f c0 82 7c 3f 97 12 77 3f 93 2a 62 3f
       0.83001685 0.9863701 0.9651274 0.88346213
000350 65 43 2f 3f 01 4f 97 3f 52 29 67 3f 44 47 72 3f
       0.6846221 1.1820985 0.90297425 0.9463999
000360 80 e1 34 3f 0c 56 8a 3f a2 72 66 3f be 10 92 3f
       0.70656586 1.080751 0.90018666 1.1411359
000370 d4 0c 72 bb f2 b7 79 3f 1a e2 59 3f 22 df a3 3f
       -0.0036933916 0.97546303 0.8511063 1.280247
000380 ca ac 66 3f ec 2c 63 3f b6 6e 84 3f 75 5c 38 3f
       0.90107405 0.8874042 1.0346286 0.7201608
000390 cb 58 84 3f c7 7e 63 3f 34 96 43 3f 05 3a 4f bf
       1.0339597 0.8886532 0.76401067 -0.80947906
0003a0 de ad 53 3f f8 69 97 3f 8b c4 3e 3f df 8f 80 3f
       0.82687175 1.1829214 0.7451865 1.0043906
0003b0 b6 34 8f 3f d7 35 50 3f a2 1a 53 3f 2d 0e 7b 3f
       1.1187961 0.81332153 0.82462513 0.98068506
0003c0 06 ed 98 3f be ec 3d 3f a1 09 96 3f 7b 93 6b 3f
       1.1947334 0.74189365 1.1721689 0.9202191
0003d0 ee cf 77 3f cd e4 8a 3f 90 b0 86 3f fc 08 29 3f
       0.9680165 1.0851074 1.0522633 0.66029334
0003e0 d4 b3 6c 3f 7b d9 9a 3f a3 a3 68 3f 30 34 ab 3f
       0.92461896 1.209762 0.9087469 1.3375301
0003f0 eb 3b 93 3f 05 b9 49 3f b3 7c 59 3f cf 39 53 3f
       1.150266 0.7879794 0.849559 0.82510084

bn1.bias f4 [400]
000000 c5 1e 69 bf 14 0e 75 bf ad 2a 38 bf f1 51 af be
       -0.91062576 -0.95724607 -0.7194012 -0.34242204
000010 d5 97 6a bf 4b dc 68 bf 71 8d 20 bc 3b 9f ed be
       -0.9163793 -0.9096114 -0.009799347 -0.46410546
000020 a6 59 1a bf 42 7a 18 bf 26 ad 47 bf 70 ef 87 bf
       -0.6029304 -0.5956155 -0.7799858 -1.0619946
000030 a4 9f d0 be 66 9f 1b bf dc 33 0f bf 08 e9 9d bf
       -0.40746796 -0.607901 -0.55938506 -1.233674
000040 1d 4f b5 be c6 2b 25 bf dd 8c 2c bf 8d ef 0b bd
       -0.3541192 -0.6451992 -0.6740244 -0.034164
000050 29 5e 14 bf 3a 22 1a bf e9 32 a9 bf ef 73 1a bf
       -0.57956177 -0.60208476 -1.3218662 -0.6033315
000060 72 e3 29 bf df 1f e9 be 6b 3a 30 bf 90 4d b8 bf
       -0.6636268 -0.45532128 -0.6883914 -1.439867
000070 96 1b ab be 60 98 cd be 30 c5 4a be 55 6a c6 be
       -0.33419484 -0.40155315 -0.19801784 -0.38753
000080 1a 66 9b be f4 b4 5e bf af 8b d1 be 19 50 42 bf
       -0.30351335 -0.8699486 -0.40926883 -0.7590347
000090 e0 70 80 bf 18 42 bf be af f4 fc be 31 e5 ad be
       -1.0034447 -0.37355113 -0.4940543 -0.33963922
0000a0 0e 58 21 bf a0 37 25 bf 95 75 4f be 9a 73 46 bf
       -0.63024986 -0.64538 -0.20259698 -0.77520144
0000b0 7f c2 63 bf 67 d3 de be 9e 3e 4a bf 6c c6 28 bf
       -0.8896865 -0.43520662 -0.79001796 -0.6592777
0000c0 e4 f4 24 bf 19 e1 84 bf 4b a8 4e bf f3 a0 47 bf
       -0.64436173 -1.0381194 -0.80725545 -0.77979964
0000d0 18 22 3d bf 9f 65 a7 be ef 2c 13 bf b1 5b e9 be
       -0.7388015 -0.32694718 -0.5749044 -0.45577767
0000e0 8b a0 d4 be 9f e4 4b bf 39 79 29 bf aa 01 79 bf
       -0.41528735 -0.79645723 -0.66200596 -0.97268164
0000f0 36 ac 31 bf 2d f9 24 bf aa af 4e bf ce 00 55 bf
       -0.694034 -0.6444271 -0.8073679 -0.8320435
000100 60 8c 26 bf 2b 71 02 bf 2e 72 32 bf 1e ad 43 bf
       -0.65057945 -0.5095393 -0.69705474 -0.7643603
000110 c0 6c dc be 44 f4 c9 be d2 3c ce be e1 b9 4b bf
       -0.4305172 -0.39444172 -0.40280777 -0.79580504
000120 9f c8 03 bf 55 a4 cc be a4 a4 17 bf 7a 8f 0a bf
       -0.51478 -0.39969125 -0.59235597 -0.5412518
000130 0f 20 a2 be 3d 75 12 bf 85 18 35 bf da d2 1b bf
       -0.31665084 -0.5721014 -0.7074054 -0.6086861
000140 f6 ec 19 bf 9e 95 0f bf c9 44 12 bf db 11 61 bf
       -0.601272 -0.5608767 -0.5713621 -0.8791787
000150 53 fa 00 bf 89 ad 89 be bd b6 4f bf 09 ca eb be
       -0.50381964 -0.2689021 -0.8113821 -0.46052578
000160 c0 b7 3a be db 95 63 be cd 8b 45 bf d7 75 95 bf
       -0.18234158 -0.22225134 -0.77166444 -1.1676587
000170 70 7f 48 bf 4e 72 e8 be 5b 0a 94 be 25 22 32 bf
       -0.78319454 -0.45399708 -0.2891415 -0.6958335
000180 8e a6 39 bf bd bf 3b bf 85 05 07 bf 68 6d e9 be
       -0.7251977 -0.73339444 -0.527428 -0.45591283
000190 13 1b 60 bf cd 50 bf be 80 d0 4f bf 02 70 de be
       -0.8754131 -0.37366334 -0.8117752 -0.4344483
0001a0 20 24 6b bf bf 17 1b bf bb 5d 43 bf 7f 55 0e bf
       -0.91852 -0.6058311 -0.76314896 -0.55599207
0001b0 a8 8a 44 bf a1 72 3b bf d8 a7 4c bf 88 87 40 bf
       -0.7677407 -0.73221785 -0.7994361 -0.75206804
0001c0 24 d1 ec be 7c ad 75 bf 18 7f 11 bf 76 fe cf be
       -0.46253312 -0.9596784 -0.56834555 -0.40623826
0001d0 5e 2e 3f bf 0a b3 f5 be d7 eb 16 be fe a5 44 bf
       -0.74680126 -0.47988158 -0.14738403 -0.76815784
0001e0 b7 ba 28 bf 41 ab 4c bf d8 84 bf be 03 40 af be
       -0.65909904 -0.7994881 -0.3740604 -0.34228525
0001f0 5d cd 72 bf df 7f c1 be a1 e5 2c bf f9 0e 02 bf
       -0.9484461 -0.3779287 -0.67537886 -0.50804096
000200 a1 5e 58 bf 85 14 61 bf 13 a9 8a be 7f cc 5f bf
       -0.8451939 -0.87921935 -0.27082118 -0.8742141
000210 77 5f 81 be c1 4b 44 bf 55 04 b2 be c0 49 de be
       -0.25268146 -0.7667809 -0.3476893 -0.43415642
000220 df 50 ff be c4 0e 38 bf b0 4f c0 be 47 c7 9b be
       -0.49866387 -0.7189753 -0.37560797 -0.30425474
000230 2a d6 71 bd 63 79 56 bf 42 22 0e bf 1d 1a b0 be
       -0.059042133 -0.8377897 -0.55521023 -0.34394923
000240 5f 03 09 bf 9e d5 13 bf 30 f9 3b bf b5 48 41 bf
       -0.5352077 -0.5774783 -0.73427105 -0.7550157
000250 21 f3 2e bf ca a4 24 bf 9e b7 40 bf e1 bf f4 be
       -0.68339735 -0.6431395 -0.7528018 -0.47802642
000260 f0 33 e8 be c3 01 e5 be 2a 11 ff be 06 a6 16 bf
       -0.45352125 -0.44727907 -0.49817783 -0.5884708
000270 03 71 80 bf a4 be 6e bf 66 c5 4b bf 28 ba 83 bf
       -1.0034488 -0.93259645 -0.7959808 -1.0291185
000280 a5 22 37 bf ae ad 0d bf c6 6f 5d be 49 68 14 bf
       -0.7153724 -0.5534314 -0.2162467 -0.57971627
000290 ff 95 1e bf 92 b4 71 bf 6a d4 38 bf 66 be 56 bf
       -0.61947626 -0.94416153 -0.7219912 -0.83884275
0002a0 d6 f4 1a bf 5d 03 62 bf 7d f6 a0 be 4e 65 19 bf
       -0.6052984 -0.8828638 -0.31438056 -0.59920204
0002b0 58 85 29 bf 89 52 3f bf c0 fa 19 bf 28 df 14 bf
       -0.6621909 -0.74735314 -0.6014824 -0.5815301
0002c0 d1 02 c1 be d9 9f f3 be e0 dd 00 bf 12 10 32 bf
       -0.3769746 -0.47582892 -0.50338554 -0.6955577
0002d0 fa 1e e4 be b0 ed 3b bf a2 95 1a bf 9e 45 e5 be
       -0.44554883 -0.7340956 -0.6038457 -0.44779676
0002e0 28 0f 02 bc 56 a7 d0 be ae 97 03 bf 13 df 00 bf
       -0.007938184 -0.40752667 -0.5140332 -0.50340384
0002f0 bb 1e 2a bf dc bf 51 bf 57 85 02 bf 87 2e 44 bf
       -0.6645314 -0.8193338 -0.5098471 -0.76633495
000300 0d 60 59 bf 27 b5 62 bf b5 f2 96 be a8 1f 14 bf
       -0.84912187 -0.88557667 -0.29482046 -0.57860804
000310 39 31 83 bf ef fb 39 bf c5 d5 34 bf 6d ff 36 bf
       -1.0249397 -0.72650045 -0.70638686 -0.714835
000320 59 4b 3a bf e0 fe e8 be a4 18 2f bf 90 19 09 bf
       -0.7277122 -0.45506954 -0.68396974 -0.5355463
000330 8f ed 32 bf ea eb 47 bf 99 93 85 bc 2c 1b 38 bf
       -0.69893736 -0.7809435 -0.016305732 -0.7191646
000340 08 e6 ce be df 81 21 bf 11 9a 26 bf f2 bd 49 bf
       -0.40409875 -0.6308879 -0.65078837 -0.7880546
000350 4a 26 c6 be e3 2a 5c bf 3c 01 0c bf bd 1b 27 bf
       -0.38701087 -0.8600294 -0.54689384 -0.652767
000360 2e b6 11 be c9 a8 61 bf 07 91 5f bf 5f 9c 2d bf
       -0.14229652 -0.8814817 -0.8733067 -0.6781673
000370 2d 6f 44 bd aa 02 0f bf b5 e5 80 be 1b 91 35 bf
       -0.047957588 -0.5586344 -0.25175253 -0.7092454
000380 ae f5 4c bf 65 79 35 bf 84 63 45 bf 04 49 d2 be
       -0.8006238 -0.7088836 -0.77104974 -0.41071332
000390 42 6b 33 bf 0e 12 1f bf 50 7a 12 bf c6 24 46 bf
       -0.7008554 -0.62136924 -0.57217884 -0.7739986
0003a0 ba 94 3c bf 4a b2 0f bf c5 60 96 be aa 9d 0d bf
       -0.7366444 -0.5613142 -0.29370704 -0.553187
0003b0 c5 d7 38 bf c4 1d 2c bf ce ee 15 bf 7d 42 4b bf
       -0.7220424 -0.6723292 -0.5856751 -0.7939833
0003c0 a9 52 aa bf 25 27 1d bf 90 15 7d bf c9 89 5c bf
       -1.3306476 -0.61387855 -0.98861027 -0.86147743
0003d0 91 9b 49 bf d2 87 64 bf 17 cf 30 bf a8 43 b0 be
       -0.78753 -0.89269745 -0.69065994 -0.34426618
0003e0 8c 0e e3 be 2f af 7f bf 72 7b 48 bf 50 c2 78 bf
       -0.44347036 -0.99876684 -0.7831336 -0.971715
0003f0 51 74 89 bf be 39 fe be 92 35 3e bf a2 84 21 bf
       -1.0738622 -0.4965343 -0.7430049 -0.63093007

bn1.running_mean f4 [400]
000000 35 bf c0 bf 38 ed 94 3f 4d 30 a4 bf 85 04 b6 bf
       -1.5058352 1.1634893 -1.282724 -1.4220129
000010 a7 68 d0 be 27 a4 b1 3d 15 8d ce 3d 93 50 d5 bf
       -0.40704843 0.08673888 0.10085503 -1.6665214
000020 1e 8b cf bf fe be 6b 3f 76 e5 89 be 83 a8 e6 be
       -1.621433 0.92088306 -0.26932877 -0.4505044
000030 4c ad 4a bf f9 e3 0e 3f 66 29 d5 3f 9a 9a 0d c0
       -0.7917068 0.5581661 1.6653259 -2.2125611
000040 3d 49 4d 40 96 37 9f 3f ab ce c1 3f b2 73 5d be
       3.207595 1.2438838 1.5141195 -0.21626166
000050 8d fa 94 3e ba ef b3 be 7f 75 b8 bf 56 67 5d 3e
       0.29097405 -0.35143834 -1.4410857 0.21621451
000060 1b 6c 3a 3e 72 75 5b be c2 79 b5 be a4 68 ce bf
       0.18205301 -0.2143152 -0.35444456 -1.6125684
000070 66 4b a7 3f 39 82 38 3f 19 32 fc 3f f1 07 9f 3f
       1.3069885 0.72073704 1.9702789 1.2424299
000080 96 c7 7d 3f 13 02 fa bf 5e 80 a8 bf d8 8a e6 3f
       0.9913267 -1.9531883 -1.3164175 1.8011122
000090 ba a2 08 c0 b8 ef 19 c0 0e ec c5 bf 40 7e 50 40
       -2.134932 -2.4052563 -1.5462663 3.2577057
0000a0 49 00 54 3f 28 81 e9 bf d7 5d 70 40 69 95 66 3e
       0.82812935 -1.824254 3.7557275 0.22517933
0000b0 7f 55 ee 3f bd 71 12 bf f3 d6 b5 3f f6 eb 91 bf
       1.8619841 -0.572048 1.4206222 -1.1400135
0000c0 05 49 71 be 2d 95 d0 bc 0f e0 3c bf 4f 04 23 c0
       -0.23563011 -0.025461758 -0.73779386 -2.547138
0000d0 88 0c 53 3f 03 c3 75 40 da 65 c3 3e 82 37 a3 bf
       0.82440996 3.8400276 0.38163644 -1.2751315
0000e0 83 a2 00 bf 57 52 e3 be 03 30 68 bf 4b 3c 31 bf
       -0.50247973 -0.44398758 -0.9069826 -0.69232625
0000f0 6b ae fe bf f0 e9 7b 3e d7 ee 2d 3f ea d5 32 bf
       -1.9896978 0.24600959 0.67942566 -0.69857657
000100 f1 d6 88 bf e0 7e a5 be 80 47 9a c0 e4 be 15 c0
       -1.0690595 -0.3232336 -4.821228 -2.339776
000110 2a fe 00 c0 eb e2 da 3e 46 9f cf bd 19 79 c0 bf
       -2.015513 0.4275125 -0.10137801 -1.5036956
000120 36 c6 13 3e 0e 3c a2 be c2 13 97 bf 5e a7 ae be
       0.1443108 -0.31686443 -1.1802905 -0.34112066
000130 3c 97 ec 3f 83 6f 3e 3f 6f 43 c2 bf ed a4 11 bf
       1.8483653 0.74388903 -1.5176829 -0.5689228
000140 8c f6 e3 be ff 36 ee 3e c9 fc 45 bf c7 31 1e bf
       -0.44524038 0.46526334 -0.77338845 -0.61794704
000150 cb b9 aa bf 3a d3 0a 3e 0d b2 a8 be 7d f8 cf 3e
       -1.333795 0.13557139 -0.32948342 0.4061927
000160 e0 44 83 40 09 3c 34 40 c3 ad 46 bf 2f 69 02 c0
       4.1021576 2.8161643 -0.7760889 -2.03767
000170 0b de e8 bf a1 5d 85 3e 45 97 1b 3f 2b 1c 6c 3f
       -1.8192762 0.26047996 0.60777694 0.9223048
000180 d3 ec 68 3e e7 94 87 3f 42 fd 23 bf 96 00 85 3f
       0.22746591 1.0592316 -0.64058316 1.0390804
000190 3a 9d 00 3f 3d 98 a9 3f c9 f4 b0 3f e9 00 4d bf
       0.5023991 1.3249584 1.3824703 -0.80079514
0001a0 04 9d b8 bf 46 f8 de 3f 9a 66 82 bf 20 7f 0f c0
       -1.4422917 1.7419517 -1.0187562 -2.242134
0001b0 9a bf e3 3f c0 58 2a c0 ae 9e 82 bf 3d 9b ac 3f
       1.7792847 -2.6616669 -1.0204675 1.3484875
0001c0 e7 e6 0a c0 ea 76 af 3f fe 01 bc be c7 ab 97 3f
       -2.1703432 1.3708165 -0.3672027 1.1849297
0001d0 38 bb 30 bf 38 c9 01 c0 2b 39 a3 bf f7 26 82 be
       -0.69035673 -2.0279064 -1.2751821 -0.25420353
0001e0 2e 19 9a bf a4 cf 9f be 16 63 e6 bf 3e d2 bb 3b
       -1.2038934 -0.31213105 -1.7998989 0.00573185
0001f0 24 12 b2 bf e3 37 e9 3f 38 af da bf ca 4e 54 3f
       -1.3911786 1.822018 -1.7084723 0.8293272
000200 18 f7 2c be bf 19 bc bf c8 02 15 3e 21 a9 b1 bf
       -0.16891134 -1.4695357 0.14551842 -1.3879739
000210 ce d1 03 40 ea 97 8a bf b1 83 1b bc 12 2f 79 bf
       2.0596805 -1.082761 -0.009491847 -0.9733745
000220 50 6d 53 3f 9a f8 61 3f 8e ce 6b bf e6 36 a9 3e
       0.8258867 0.8826996 -0.9211205 0.33049697
000230 39 59 8b bd de c7 df bf ee 6a e6 bf c4 6a 60 c0
       -0.06804127 -1.748287 -1.8001382 -3.5065165
000240 fe 4d 0e bf 48 25 5b 3e cb 95 8b 3e 89 6d a1 bf
       -0.55587757 0.2140094 0.2726272 -1.2611552
000250 77 1e 8b 3e 3a 8d e9 bc 7a 04 a8 3f 2d 2d 59 be
       0.2717168 -0.028509725 1.3126366 -0.2120864
000260 c0 c9 f7 3e 87 3f 85 3f f1 71 51 be 63 64 a9 3f
       0.4839611 1.0410012 -0.20453621 1.323376
000270 86 01 d9 3f 48 53 7d 3e 7d a3 39 bf 1a 25 38 3f
       1.695359 0.247388 -0.7251509 0.7193161
000280 7d 16 83 3f ca 32 68 be cf 93 33 bf 83 ab a8 3d
       1.0241238 -0.22675624 -0.70147413 0.08235838
000290 4f 11 5e 3f be 82 89 bf 1f df 07 bf c4 90 d8 bc
       0.8674516 -1.0743024 -0.5307483 -0.026436217
0002a0 d0 ba e1 be 89 d2 ae bf 12 b5 90 3f ae 03 bc 40
       -0.4408784 -1.3658 1.1305258 5.875449
0002b0 82 c2 ef bf 22 cd c3 3d 45 c3 18 bf d9 a4 50 bf
       -1.8731234 0.0956061 -0.5967296 -0.8150154
0002c0 8f 1d 61 40 24 cb 84 bf bf 37 65 bf 22 eb 48 3f
       3.517429 -1.0374494 -0.89538187 0.78483784
0002d0 ad 6b d2 be ec e3 9f 3d 99 78 df 3e 21 5a ea 3d
       -0.41097775 0.078071445 0.43646696 0.11442972
0002e0 fa 6c 20 3f 90 3d 09 bf 13 56 4d bf ea f9 95 bf
       0.62666285 -0.5360956 -0.80209464 -1.1716893
0002f0 cd 0b 2d 3f 0c b7 4e bf 5f 4c d7 bf 05 42 8f 3c
       0.6759613 -0.8074806 -1.6820182 0.017487535
000300 e6 14 10 c0 f0 1f 58 bf c2 ad 63 3e b9 a8 2b bf
       -2.2512755 -0.8442373 0.22234252 -0.67054325
000310 c1 41 f9 bf 2b eb c3 bf bf 6c 93 bf 23 bd fd be
       -1.9473191 -1.5306143 -1.1517562 -0.49558362
000320 23 f4 b5 3e 06 5b af bf d8 71 22 be c8 c8 77 be
       0.35537824 -1.3699653 -0.1586374 -0.24197686
000330 e7 1f b7 3e 16 06 ca be 4f b4 8d 3f a2 19 5b 3f
       0.35766527 -0.39457768 1.1070651 0.8558599
000340 84 92 15 40 35 7c 3a bf 15 b1 58 bf 41 47 f5 3e
       2.3370676 -0.72845775 -0.84645206 0.47905925
000350 e8 4a 5b 3f d9 f8 b0 bf 55 8e 22 bf d8 b3 ea 3f
       0.8566117 -1.3825942 -0.6349843 1.8336134
000360 03 08 41 3f 8e bf 6f be b2 52 80 be 3d 09 44 bd
       0.7540285 -0.23412916 -0.25063092 -0.047860373
000370 e6 6a 3b be 7e 79 62 40 46 10 96 3f 5c c0 c7 3d
       -0.18302497 3.5386653 1.1723716 0.097534865
000380 ad 05 12 40 27 cc 1c bd 93 cc f0 3e 55 33 03 bf
       2.2815964 -0.038280632 0.47031078 -0.512502
000390 a0 3c 17 c0 10 c2 5f be 78 09 a7 3f a6 94 53 bf
       -2.3630753 -0.21851373 1.3049765 -0.82648695
0003a0 aa 5b a9 bf 02 55 ab bf e7 b0 04 bf 29 f5 96 be
       -1.3231099 -1.3385317 -0.5183243 -0.29483917
0003b0 83 af e6 3c e0 b1 2f 40 a2 06 53 40 f4 71 81 bc
       0.028159862 2.7452316 3.2972798 -0.015801407
0003c0 15 28 07 3f 52 6e 3a 3f 8a f5 fb 3f 03 a0 8b 3f
       0.52795535 0.72824585 1.9684308 1.0908207
0003d0 76 d4 c4 be 3b c6 99 bc dc c8 9d bf 9e 8c 28 3f
       -0.38443345 -0.018771281 -1.2326922 0.65839565
0003e0 93 7d 2a c0 a2 67 1f c0 67 55 80 3e 21 0d ae bf
       -2.6639144 -2.4907002 0.25065157 -1.3597757
0003f0 f1 cd cd bd 9b 45 5c bf c9 e7 14 c0 42 63 b6 bf
       -0.10049046 -0.8604371 -2.326647 -1.4249041

bn1.running_var f4 [400]
000000 56 57 c6 40 e7 88 ce 40 88 ac b4 40 39 b9 ce 40
       6.198161 6.4542117 5.646061 6.46011
000010 49 aa 1c 41 00 7f 2a 41 e1 2f 2b 3e e1 0b f6 40
       9.791574 10.656006 0.16717483 7.68895
000020 71 a9 16 41 1a 6c 4e 41 bb dc 00 41 f7 a2 d4 40
       9.416368 12.901392 8.053889 6.644893
000030 5b d5 8e 40 05 f0 62 40 98 af aa 41 15 ff 2d 41
       4.4635444 3.5458996 21.33574 10.874776
000040 98 e8 ac 40 e5 b3 2a 41 fe cf df 40 8a 6d 62 3e
       5.403393 10.66892 6.9941397 0.22112098
000050 46 6c ea 40 4b 9b 8b 40 05 72 a5 40 23 af 56 41
       7.325717 4.3627067 5.1701684 13.417758
000060 5d 98 8e 40 1b ec a4 40 4d 70 23 41 34 c1 bb 40
       4.456099 5.1538215 10.214917 5.8673344
000070 0e f6 82 41 bc 0f be 40 55 5c f5 40 36 2f 62 40
       16.370144 5.9394207 7.667521 3.5341315
000080 a8 2d 47 40 ce 98 28 41 90 c5 17 41 6e ff 62 41
       3.1121616 10.537306 9.485733 14.187361
000090 92 72 b8 40 89 b6 0a 41 10 88 e2 40 a6 44 ca 40
       5.7639856 8.669564 7.079109 6.32088
0000a0 2f 0e 2c 41 bb b9 18 41 f0 3a 7f 41 53 ac 05 41
       10.753463 9.545344 15.951889 8.354571
0000b0 ea ae 6d 41 60 29 8b 40 7b 00 16 41 77 07 23 41
       14.855204 4.3488007 9.375117 10.189322
0000c0 a3 0e 6b 40 d2 15 52 40 5e 96 87 40 44 c5 80 41
       3.6727684 3.2825818 4.2371054 16.096321
0000d0 c0 63 49 41 ce f1 a0 41 56 25 9c 40 e3 c5 33 41
       12.586853 20.118069 4.8795576 11.235812
0000e0 ee c0 f4 40 47 4c e9 40 5d 19 76 40 9d 94 9c 40
       7.648551 7.290561 3.845298 4.8931413
0000f0 ba 88 a5 40 0c 47 64 40 1c 83 8c 40 e7 82 5c 40
       5.1729403 3.5668364 4.3910046 3.4454896
000100 09 3d f9 40 86 93 8f 40 e0 64 4d 41 7f ef c5 40
       7.7887006 4.486758 12.837128 6.1854854
000110 bd 4a c6 40 c8 fd cc 40 55 f5 b6 41 6f 71 a8 40
       6.1966233 6.405979 22.869791 5.263847
000120 82 1f da 40 b6 f6 c0 40 cd a7 8d 41 47 f9 11 41
       6.816346 6.030116 17.706934 9.123359
000130 13 55 43 41 7d 2e d7 40 89 59 93 40 0c 8d 69 40
       12.20827 6.724425 4.6046796 3.6492338
000140 a1 c2 ca 40 b2 b0 cd 40 ab 5f 90 40 f5 31 a6 40
       6.3362584 6.4278193 4.511678 5.1935983
000150 9c 31 ba 40 94 9c 51 41 4e d9 50 40 b6 73 91 40
       5.818556 13.100727 3.2632632 4.545375
000160 d1 1a 4e 41 5a 10 6a 41 d8 91 ac 40 96 2a 15 41
       12.881547 14.628992 5.392803 9.322897
000170 3e fb 8e 40 ed a9 0a 41 6b f0 a4 40 d3 d3 02 41
       4.468169 8.666486 5.154348 8.176715
000180 f3 d6 bc 40 38 92 aa 40 a1 c9 c7 40 98 e7 08 41
       5.901239 5.330349 6.243363 8.556541
000190 9d c3 b7 40 8a 88 0d 41 94 5e 32 41 38 b4 02 41
       5.7426286 8.845835 11.14809 8.168999
0001a0 5a 30 6e 40 7d c3 98 40 52 53 be 40 f8 6b ee 40
       3.7217011 4.7738633 5.947671 7.45068
0001b0 2e 4e 35 41 0c 56 ef 40 10 d3 dd 40 1c b8 62 40
       11.331587 7.479254 6.9320145 3.5424871
0001c0 a1 27 ae 40 32 61 ce 40 c8 59 23 41 60 c9 b5 40
       5.4423375 6.4493647 10.209419 5.680832
0001d0 25 2c f3 40 c5 cf 9b 40 28 1b ea 41 af fd af 40
       7.5991387 4.8691125 29.26326 5.499717
0001e0 42 ba d3 40 5a a6 71 40 50 17 c6 40 75 0e 84 40
       6.6164865 3.7757783 6.190346 4.126765
0001f0 0c 12 d5 40 8a 79 b8 40 b9 e2 e1 40 1f 9c 05 41
       6.658453 5.7648363 7.058926 8.3506155
000200 a5 88 ad 40 e0 9c 74 40 6f c2 2c 41 5d fd 48 40
       5.4229302 3.822075 10.797469 3.140464
000210 e5 d6 08 41 57 75 b1 40 e4 54 8b 40 89 d2 3e 40
       8.5524645 5.5455737 4.3541126 2.9816
000220 38 5b 0b 41 34 ea f0 40 75 fc e5 40 5c de 0d 41
       8.70977 7.5285892 7.1870675 8.866787
000230 9e d4 f7 40 04 20 00 41 9f bf a3 40 70 72 e6 40
       7.7447042 8.007816 5.1171412 7.2014694
000240 6d c9 85 41 bc d6 50 40 cf d6 ae 40 8a d4 da 40
       16.723352 3.2631063 5.4637218 6.8384447
000250 cd f1 04 41 d4 da ca 40 bd 4c 9f 40 d2 aa 09 41
       8.309033 6.3392124 4.9781175 8.604204
000260 f7 9e 46 41 74 f9 d6 40 84 c0 ae 40 f5 d5 67 41
       12.41381 6.717951 5.4610004 14.489736
000270 1b 1f 1c 41 81 47 99 40 61 15 ca 40 6e 4c cd 40
       9.757594 4.7899785 6.3151097 6.41558
000280 6f 7b 17 41 3f db 9c 40 9b cb fa 40 48 f2 94 40
       9.467635 4.9017634 7.837354 4.6545753
000290 e0 30 c8 40 9d 77 9d 40 e1 65 18 41 4d ba 9b 40
       6.255966 4.920851 9.524873 4.866492
0002a0 5c 03 89 40 ae fe e5 40 00 a1 c0 41 72 67 78 41
       4.28166 7.187339 24.078613 15.525255
0002b0 00 14 41 41 85 c7 98 40 4b c8 14 41 61 07 8f 41
       12.067383 4.7743554 9.2989 17.878603
0002c0 23 9e 13 41 6e c1 f2 40 6f 6d 92 40 8a 77 76 40
       9.226108 7.586112 4.5758586 3.851046
0002d0 e0 18 88 40 31 f4 4e 41 1f 95 64 40 8b af 99 40
       4.2530365 12.934617 3.5716016 4.8026786
0002e0 db 82 cf 40 4b db de 40 0c 8d 30 41 d7 c7 84 40
       6.4847236 6.964269 11.034435 4.1493945
0002f0 82 96 15 41 09 6f 96 40 10 ac de 40 da de 01 41
       9.349245 4.701054 6.9585037 8.116907
000300 7d 17 7e 40 5a ae be 40 27 50 6c 40 c9 2a a6 40
       3.9701836 5.958783 3.692392 5.192723
000310 6e 18 d7 40 7d b5 d9 40 aa f4 f1 40 91 2b a3 40
       6.721732 6.8034043 7.561116 5.099068
000320 b3 ab 0c 41 76 20 f6 40 95 a6 c4 40 9b 58 9a 40
       8.791919 7.6914625 6.1453347 4.823316
000330 6b 57 b6 40 35 66 77 41 2f dc 70 40 e4 50 f7 40
       5.698171 15.462453 3.763439 7.7286243
000340 58 88 e8 40 cf e5 fb 40 52 1e 91 40 8f dd 0f 41
       7.2666435 7.871803 4.534951 8.991591
000350 88 d9 4a 41 a1 d4 59 40 d9 e1 a9 40 d7 c3 36 41
       12.678108 3.4036028 5.3088193 11.422812
000360 3e f8 9c 40 8a 56 47 41 af 22 57 41 37 b4 3a 41
       4.905303 12.458628 13.445968 11.668998
000370 32 37 4e 3f be d1 12 41 25 80 ce 40 e4 5c be 40
       0.8055297 9.176207 6.4531426 5.948839
000380 48 7a af 40 8c f5 f9 40 06 9c e7 40 b8 b9 6d 40
       5.483677 7.811224 7.237796 3.7144604
000390 51 a4 b0 40 3c b2 18 41 00 63 d4 40 69 ba c8 40
       5.520058 9.543514 6.637085 6.272755
0003a0 10 b0 56 41 9b 36 09 41 36 51 a5 40 db 9c 94 40
       13.417984 8.575831 5.1661634 4.6441474
0003b0 7b d8 8f 40 6e 96 50 41 2b b8 27 41 34 ee f5 40
       4.495176 13.036726 10.482463 7.6853275
0003c0 72 96 50 40 d0 83 a0 40 b9 a4 1a 41 57 5b 82 41
       3.2591825 5.0160904 9.6652155 16.2946
0003d0 52 d0 3f 41 53 db f4 40 b8 84 b1 40 f9 fc ba 40
       11.988359 7.651773 5.547451 5.8433805
0003e0 91 0d bc 40 71 7e 87 40 68 6b aa 40 3f 3a 8e 40
       5.876656 4.2341847 5.325611 4.44461
0003f0 54 73 81 40 75 26 99 40 a1 30 c7 40 dd 5f 23 41
       4.045328 4.7859445 6.224686 10.210904

fc2.weight f4 [300, 400]
000000 59 b1 47 3f 55 7e 96 be 07 23 f8 be 4d e4 42 bf
       0.78004986 -0.2939326 -0.48464224 -0.7612961
000010 02 a0 47 3f b2 1d 68 3e 42 16 4b 3d 52 67 9f 3e
       0.7797853 0.22667578 0.049581774 0.31133515
000020 4b d1 fc 3b 97 f9 b3 3e e8 b1 5c bf 2f 5d 66 3e
       0.0077153794 0.3515136 -0.86208963 0.22496484
000030 58 d9 1d bf 3e 17 28 3f 47 23 04 bf ea 14 2a 3e
       -0.61659765 0.65660465 -0.5161633 0.1660954
000040 9d 48 7d be 9d 82 a3 be c9 fe e4 be 23 4d f9 3c
       -0.24734731 -0.31935588 -0.44725636 0.03043229
000050 75 44 05 be a6 04 23 be 9e 8c 07 3f f8 f2 00 be
       -0.13014396 -0.15919742 0.5294894 -0.12592685
000060 b8 d1 19 be 94 76 6d be 98 42 ea be 75 8d 18 bf
       -0.15021408 -0.23189765 -0.45753932 -0.59590846
000070 e0 44 7d 3d d7 37 a7 3b 97 dd f4 bc 4a dd 82 bc
       0.061833262 0.005103092 -0.029890819 -0.01597466
000080 56 2e a9 3e f0 42 08 bf b3 b5 b4 be a8 58 81 be
       0.33043164 -0.5322714 -0.35294876 -0.25262952
000090 32 1a ff bd 73 e0 13 bd 34 af 2f bd bf b1 f2 3d
       -0.12456168 -0.036102723 -0.042891696 0.118503086
0000a0 45 be 4f 3e 08 f8 10 3f db e1 2c be 58 c5 41 bf
       0.20287426 0.56628466 -0.16883032 -0.7569175
0000b0 47 74 8e be 0b 85 aa bd 5d 76 a4 3e a8 a2 a8 3e
       -0.27823088 -0.08326157 0.32121554 0.32936597
0000c0 6b 25 7e be a2 11 0b 3d c5 35 e7 3d 95 7f 09 3e
       -0.24818961 0.033952363 0.112895526 0.13427575
0000d0 e3 a7 bc be 67 2e b0 be aa ef de be 70 2c dc 3d
       -0.36846837 -0.34410402 -0.43542224 0.10750663
0000e0 39 7d c2 3e 5d 00 f7 bd d2 3b 83 bc 25 62 bf 3e
       0.37986162 -0.12060616 -0.016019735 0.37379566
0000f0 c5 07 f7 bd 1c 04 06 3f f2 01 8c bf 3e b1 3a 3f
       -0.12062029 0.5235002 -1.0938094 0.729267
000100 87 eb 97 bd d9 e2 13 bf 65 ee f7 bd ba 2c 2f bf
       -0.0741797 -0.5776802 -0.12106017 -0.6842762
000110 45 71 3d bf 1f 78 2b 3e 48 cd cb 3e 64 c9 43 bd
       -0.7400096 0.16745041 0.39805055 -0.047799483
000120 49 4d 64 bf 73 7b 29 3e 90 84 42 3f ea 8f 31 bc
       -0.8918043 0.16550998 0.75983524 -0.010837534
000130 6f 7e e3 ba af 4c ff bd 4d 93 2b 3e 32 f4 41 3e
       -0.0017356406 -0.12465798 0.1675541 0.1894081
000140 97 cc a5 3e de b4 b4 3e 47 b5 fa 3c cb fa 0f 3f
       0.32382652 0.3529424 0.030604018 0.56242055
000150 75 4f 39 3d c4 3b 9e bd 3c 7e 05 3f 8b c8 a5 be
       0.04524179 -0.07726243 0.52145743 -0.32379565
000160 db cd 9c 3d a8 58 76 3d 40 a3 51 be 61 7a 86 be
       0.07656451 0.060143143 -0.20472431 -0.26265243
000170 cf fe 9c 3b 35 e8 88 3e 90 b1 5e 3f 86 c6 a0 3e
       0.0047911177 0.2673966 0.8698969 0.3140146
000180 ce 38 c3 bd cc 71 9b be f5 20 d7 be e4 e2 eb 3d
       -0.09532319 -0.30360258 -0.42017332 0.11517885
000190 8e 46 ac be c5 42 44 3d 23 f1 eb 3e 92 82 c4 be
       -0.3364758 0.04791524 0.4608241 -0.38380867
0001a0 0d 10 a2 be 83 42 1b 3d ef e1 73 3e 45 bc 70 be
       -0.3165287 0.037905227 0.23816656 -0.23509319
0001b0 77 c8 70 bf 24 a8 63 3e 7b 2b 97 3d c1 ba 61 3e
       -0.94055885 0.2223211 0.0738134 0.22043897
0001c0 50 e2 21 3f 16 25 14 3f 50 2e d4 bc 2a e1 97 bd
       0.6323595 0.5786909 -0.02590099 -0.074159935
0001d0 6c a1 dd be 44 ca ce bd 75 ac 03 bf eb 4f 33 be
       -0.43287218 -0.10097173 -0.51435024 -0.17510955
0001e0 36 44 32 3e c6 d9 31 bf d5 21 b7 be dd be 00 bf
       0.17408833 -0.6947292 -0.35768 -0.50291234
0001f0 8b 14 2f 3e 97 ee 2a 3d f2 99 97 bc 43 68 9c be
       0.1709768 0.041731443 -0.018506024 -0.30548295
000200 55 76 1f 3f 1c 02 9a be 5b 08 5c 3e 12 61 2c bf
       0.62289935 -0.30079734 0.21487562 -0.6733562
000210 cd e2 27 3e 6e 2e 06 3f 93 da 03 bf ff 2c a7 3d
       0.16395111 0.52414596 -0.5150539 0.08162879
000220 0d 4b e0 3e 40 72 40 bf 4c a1 c5 3d 2e 31 79 bc
       0.4380726 -0.7517433 0.096499056 -0.015209479
000230 e6 ee 9d 3e d5 62 e4 3c f7 20 21 bf 48 04 b3 3e
       0.30846328 0.027879158 -0.62940925 0.34964204
000240 5d 85 88 be ba 8f ca 3d f5 2b 5b be 94 84 d3 3e
       -0.26664248 0.09890695 -0.21403487 0.41312087
000250 2f 22 25 3e 0b 74 a1 3d eb ea d4 3d 58 46 f1 bd
       0.16126321 0.078834616 0.103963695 -0.11780995
000260 1a a0 05 bf 2a 83 06 bd 71 26 84 be f6 2d d0 bd
       -0.5219742 -0.03283993 -0.25810578 -0.10165016
000270 e1 74 fd 3e e8 72 3c bf 5c 03 07 3f ac 8f 00 bd
       0.49503234 -0.73612833 0.527395 -0.031387016
000280 35 75 ba be f8 f2 2d 3f 8a 8b 0e be 47 7a ca 3d
       -0.36417547 0.67948866 -0.13920417 0.09886604
000290 a0 54 ba be 29 b3 8e bd a6 ff c8 3e df f3 42 be
       -0.3639269 -0.06967766 0.39257544 -0.19038342
0002a0 5f 35 0e bf cc 89 a1 be be 97 1b 3e 75 35 5f bf
       -0.5555019 -0.31550443 0.15194604 -0.87190944
0002b0 42 0c d4 3d 77 20 dd 3e ee b1 93 3e 9e 1b ba 3d
       0.103539005 0.4318883 0.28846687 0.09087299
0002c0 b5 6c 86 3c 6a 4c 58 be 9f c0 36 be 36 b0 64 3e
       0.016409257 -0.211229 -0.17846917 0.22332844
0002d0 f8 04 66 bd 03 dc a4 be 6b d2 aa 3e df 64 32 3c
       -0.056157082 -0.32199106 0.3336366 0.010888307
0002e0 6a 73 d5 bd 4f ba a5 3e bb 4e 10 3e d6 b9 c2 be
       -0.10422404 0.32368705 0.14092533 -0.38032407
0002f0 ae ef 39 bf c9 9d 47 3e 0c a2 23 3f 69 b1 0c 3e
       -0.7263135 0.19493784 0.6391914 0.13739552
000300 68 ff be be 3b 3f d7 be 5a a8 56 be 12 d8 94 bf
       -0.37304235 -0.4204043 -0.20962659 -1.162844
000310 53 c8 20 bf 52 d5 57 3e b3 92 84 be b5 c2 ec be
       -0.6280567 0.21077469 -0.25893173 -0.462423
000320 2b af e6 be 8e f1 64 be f5 e9 ab be 2d a8 99 3e
       -0.45055518 -0.22357771 -0.33576933 0.3001112
000330 31 01 ee 3c 97 81 4d be 11 21 90 be 8d b2 ba 3e
       0.029053302 -0.20068966 -0.28150228 0.36464348
000340 55 eb 9b bc 2d 9e d4 3c 3d 0e 05 be 92 64 d5 3e
       -0.019033113 0.02595433 -0.12993713 0.41678292
000350 db e7 7d be 9d b3 52 be c1 62 07 bd cb 9b 89 be
       -0.24795477 -0.2057633 -0.033053163 -0.26876673
000360 30 0b c4 be 3b 97 99 bf ea 6c bb be 05 de fa bc
       -0.38289785 -1.1999277 -0.36606532 -0.030623445
000370 9c 37 b5 3d 44 ee e2 3c d1 36 db 3e 76 2d 09 bf
       0.08848497 0.027701505 0.4281526 -0.5358499
000380 7f 00 38 3e d2 83 da bd f9 43 cc 3d 80 01 a8 3e
       0.17968939 -0.10669674 0.09973902 0.32813644
000390 ab 56 70 be 62 e0 fa be ba 86 8c 3c 4c 2b 0d 3f
       -0.23470561 -0.48999316 0.017154086 0.5514419
0003a0 17 e7 3b bf ee c1 51 3e a3 0b e2 be 5a d5 0a bf
       -0.7339949 0.20484135 -0.44149503 -0.542318
0003b0 c4 ef 86 3e 74 e0 31 bd d7 a3 96 be ad c2 6f bb
       0.26354802 -0.043426946 -0.29421875 -0.0036584542
0003c0 29 44 5e be 42 9f 18 3e d4 c1 06 bf 8f 32 59 3e
       -0.21705689 0.14904502 -0.5263951 0.21210693
0003d0 2b cd fb 3d f2 33 06 3e b9 f2 64 3e 9c 5e 67 bd
       0.12294992 0.13105753 0.22358216 -0.05648671
0003e0 c2 b2 bb 3e 08 67 66 bf 61 35 24 3e c6 67 ba be
       0.3665982 -0.90000963 0.16035987 -0.36407298
0003f0 80 f0 bf bd d9 fd 25 bf 5e 6c a0 be 65 c2 5c 3e
       -0.093720436 -0.64840466 -0.31332678 0.2155853
